{
    "format": "graph-model",
    "generatedBy": "2.15.0",
    "convertedBy": "TensorFlow.js Converter v4.15.0",
    "signature": {
        "inputs": {
            "input": {
                "name": "input:0",
                "dtype": "DT_FLOAT",
                "tensorShape": {
                    "dim": [
                        {
                            "size": "-1"
                        },
                        {
                            "size": "4"
                        },
                        {
                            "size": "3072"
                        },
                        {
                            "size": "32"
                        }
                    ]
                }
            }
        },
        "outputs": {
            "output": {
                "name": "Identity:0",
                "dtype": "DT_FLOAT",
                "tensorShape": {
                    "dim": [
                        {
                            "size": "-1"
                        },
                        {
                            "size": "4"
                        },
                        {
                            "size": "3072"
                        },
                        {
                            "size": "32"
                        }
                    ]
                }
            }
        }
    },
    "modelTopology": {
        "node": [
            {
                "name": "PartitionedCall/Slice_4/begin",
                "op": "Const",
                "attr": {
                    "value": {
                        "tensor": {
                            "dtype": "DT_INT32",
                            "tensorShape": {
                                "dim": [
                                    {
                                        "size": "4"
                                    }
                                ]
                            }
                        }
                    },
                    "dtype": {
                        "type": "DT_INT32"
                    }
                }
            },
            {
                "name": "PartitionedCall/strided_slice_31/stack",
                "op": "Const",
                "attr": {
                    "value": {
                        "tensor": {
                            "dtype": "DT_INT32",
                            "tensorShape": {
                                "dim": [
                                    {
                                        "size": "1"
                                    }
                                ]
                            }
                        }
                    },
                    "dtype": {
                        "type": "DT_INT32"
                    }
                }
            },
            {
                "name": "PartitionedCall/strided_slice_31/stack_1",
                "op": "Const",
                "attr": {
                    "value": {
                        "tensor": {
                            "dtype": "DT_INT32",
                            "tensorShape": {
                                "dim": [
                                    {
                                        "size": "1"
                                    }
                                ]
                            }
                        }
                    },
                    "dtype": {
                        "type": "DT_INT32"
                    }
                }
            },
            {
                "name": "PartitionedCall/strided_slice_31/stack_2",
                "op": "Const",
                "attr": {
                    "value": {
                        "tensor": {
                            "dtype": "DT_INT32",
                            "tensorShape": {
                                "dim": [
                                    {
                                        "size": "1"
                                    }
                                ]
                            }
                        }
                    },
                    "dtype": {
                        "type": "DT_INT32"
                    }
                }
            },
            {
                "name": "PartitionedCall/strided_slice_32/stack",
                "op": "Const",
                "attr": {
                    "value": {
                        "tensor": {
                            "dtype": "DT_INT32",
                            "tensorShape": {
                                "dim": [
                                    {
                                        "size": "1"
                                    }
                                ]
                            }
                        }
                    },
                    "dtype": {
                        "type": "DT_INT32"
                    }
                }
            },
            {
                "name": "PartitionedCall/strided_slice_32/stack_1",
                "op": "Const",
                "attr": {
                    "dtype": {
                        "type": "DT_INT32"
                    },
                    "value": {
                        "tensor": {
                            "dtype": "DT_INT32",
                            "tensorShape": {
                                "dim": [
                                    {
                                        "size": "1"
                                    }
                                ]
                            }
                        }
                    }
                }
            },
            {
                "name": "PartitionedCall/strided_slice_32/stack_2",
                "op": "Const",
                "attr": {
                    "dtype": {
                        "type": "DT_INT32"
                    },
                    "value": {
                        "tensor": {
                            "dtype": "DT_INT32",
                            "tensorShape": {
                                "dim": [
                                    {
                                        "size": "1"
                                    }
                                ]
                            }
                        }
                    }
                }
            },
            {
                "name": "PartitionedCall/strided_slice_33/stack",
                "op": "Const",
                "attr": {
                    "dtype": {
                        "type": "DT_INT32"
                    },
                    "value": {
                        "tensor": {
                            "dtype": "DT_INT32",
                            "tensorShape": {
                                "dim": [
                                    {
                                        "size": "1"
                                    }
                                ]
                            }
                        }
                    }
                }
            },
            {
                "name": "PartitionedCall/strided_slice_33/stack_1",
                "op": "Const",
                "attr": {
                    "dtype": {
                        "type": "DT_INT32"
                    },
                    "value": {
                        "tensor": {
                            "dtype": "DT_INT32",
                            "tensorShape": {
                                "dim": [
                                    {
                                        "size": "1"
                                    }
                                ]
                            }
                        }
                    }
                }
            },
            {
                "name": "PartitionedCall/strided_slice_33/stack_2",
                "op": "Const",
                "attr": {
                    "dtype": {
                        "type": "DT_INT32"
                    },
                    "value": {
                        "tensor": {
                            "dtype": "DT_INT32",
                            "tensorShape": {
                                "dim": [
                                    {
                                        "size": "1"
                                    }
                                ]
                            }
                        }
                    }
                }
            },
            {
                "name": "PartitionedCall/strided_slice_30/stack",
                "op": "Const",
                "attr": {
                    "dtype": {
                        "type": "DT_INT32"
                    },
                    "value": {
                        "tensor": {
                            "dtype": "DT_INT32",
                            "tensorShape": {
                                "dim": [
                                    {
                                        "size": "1"
                                    }
                                ]
                            }
                        }
                    }
                }
            },
            {
                "name": "PartitionedCall/strided_slice_30/stack_1",
                "op": "Const",
                "attr": {
                    "value": {
                        "tensor": {
                            "dtype": "DT_INT32",
                            "tensorShape": {
                                "dim": [
                                    {
                                        "size": "1"
                                    }
                                ]
                            }
                        }
                    },
                    "dtype": {
                        "type": "DT_INT32"
                    }
                }
            },
            {
                "name": "PartitionedCall/strided_slice_30/stack_2",
                "op": "Const",
                "attr": {
                    "value": {
                        "tensor": {
                            "dtype": "DT_INT32",
                            "tensorShape": {
                                "dim": [
                                    {
                                        "size": "1"
                                    }
                                ]
                            }
                        }
                    },
                    "dtype": {
                        "type": "DT_INT32"
                    }
                }
            },
            {
                "name": "PartitionedCall/mul_8/x",
                "op": "Const",
                "attr": {
                    "value": {
                        "tensor": {
                            "dtype": "DT_INT32",
                            "tensorShape": {}
                        }
                    },
                    "dtype": {
                        "type": "DT_INT32"
                    }
                }
            },
            {
                "name": "PartitionedCall/strided_slice_28/stack",
                "op": "Const",
                "attr": {
                    "value": {
                        "tensor": {
                            "dtype": "DT_INT32",
                            "tensorShape": {
                                "dim": [
                                    {
                                        "size": "1"
                                    }
                                ]
                            }
                        }
                    },
                    "dtype": {
                        "type": "DT_INT32"
                    }
                }
            },
            {
                "name": "PartitionedCall/strided_slice_28/stack_1",
                "op": "Const",
                "attr": {
                    "value": {
                        "tensor": {
                            "dtype": "DT_INT32",
                            "tensorShape": {
                                "dim": [
                                    {
                                        "size": "1"
                                    }
                                ]
                            }
                        }
                    },
                    "dtype": {
                        "type": "DT_INT32"
                    }
                }
            },
            {
                "name": "PartitionedCall/strided_slice_28/stack_2",
                "op": "Const",
                "attr": {
                    "dtype": {
                        "type": "DT_INT32"
                    },
                    "value": {
                        "tensor": {
                            "dtype": "DT_INT32",
                            "tensorShape": {
                                "dim": [
                                    {
                                        "size": "1"
                                    }
                                ]
                            }
                        }
                    }
                }
            },
            {
                "name": "PartitionedCall/sub_24/y",
                "op": "Const",
                "attr": {
                    "dtype": {
                        "type": "DT_INT32"
                    },
                    "value": {
                        "tensor": {
                            "dtype": "DT_INT32",
                            "tensorShape": {}
                        }
                    }
                }
            },
            {
                "name": "PartitionedCall/add_56",
                "op": "Const",
                "attr": {
                    "value": {
                        "tensor": {
                            "dtype": "DT_INT32",
                            "tensorShape": {}
                        }
                    },
                    "dtype": {
                        "type": "DT_INT32"
                    }
                }
            },
            {
                "name": "PartitionedCall/mul_9/x",
                "op": "Const",
                "attr": {
                    "value": {
                        "tensor": {
                            "dtype": "DT_INT32",
                            "tensorShape": {}
                        }
                    },
                    "dtype": {
                        "type": "DT_INT32"
                    }
                }
            },
            {
                "name": "PartitionedCall/strided_slice_29/stack",
                "op": "Const",
                "attr": {
                    "value": {
                        "tensor": {
                            "dtype": "DT_INT32",
                            "tensorShape": {
                                "dim": [
                                    {
                                        "size": "1"
                                    }
                                ]
                            }
                        }
                    },
                    "dtype": {
                        "type": "DT_INT32"
                    }
                }
            },
            {
                "name": "PartitionedCall/strided_slice_29/stack_1",
                "op": "Const",
                "attr": {
                    "dtype": {
                        "type": "DT_INT32"
                    },
                    "value": {
                        "tensor": {
                            "dtype": "DT_INT32",
                            "tensorShape": {
                                "dim": [
                                    {
                                        "size": "1"
                                    }
                                ]
                            }
                        }
                    }
                }
            },
            {
                "name": "PartitionedCall/strided_slice_29/stack_2",
                "op": "Const",
                "attr": {
                    "dtype": {
                        "type": "DT_INT32"
                    },
                    "value": {
                        "tensor": {
                            "dtype": "DT_INT32",
                            "tensorShape": {
                                "dim": [
                                    {
                                        "size": "1"
                                    }
                                ]
                            }
                        }
                    }
                }
            },
            {
                "name": "PartitionedCall/sub_25/y",
                "op": "Const",
                "attr": {
                    "dtype": {
                        "type": "DT_INT32"
                    },
                    "value": {
                        "tensor": {
                            "dtype": "DT_INT32",
                            "tensorShape": {}
                        }
                    }
                }
            },
            {
                "name": "PartitionedCall/add_58",
                "op": "Const",
                "attr": {
                    "value": {
                        "tensor": {
                            "dtype": "DT_INT32",
                            "tensorShape": {}
                        }
                    },
                    "dtype": {
                        "type": "DT_INT32"
                    }
                }
            },
            {
                "name": "PartitionedCall/conv2d_transpose_4/input_sizes/3",
                "op": "Const",
                "attr": {
                    "dtype": {
                        "type": "DT_INT32"
                    },
                    "value": {
                        "tensor": {
                            "dtype": "DT_INT32",
                            "tensorShape": {}
                        }
                    }
                }
            },
            {
                "name": "PartitionedCall/split_40",
                "op": "Const",
                "attr": {
                    "value": {
                        "tensor": {
                            "dtype": "DT_FLOAT",
                            "tensorShape": {
                                "dim": [
                                    {
                                        "size": "2"
                                    },
                                    {
                                        "size": "2"
                                    },
                                    {
                                        "size": "48"
                                    },
                                    {
                                        "size": "96"
                                    }
                                ]
                            }
                        }
                    },
                    "dtype": {
                        "type": "DT_FLOAT"
                    }
                }
            },
            {
                "name": "PartitionedCall/Slice_3/begin",
                "op": "Const",
                "attr": {
                    "dtype": {
                        "type": "DT_INT32"
                    },
                    "value": {
                        "tensor": {
                            "dtype": "DT_INT32",
                            "tensorShape": {
                                "dim": [
                                    {
                                        "size": "4"
                                    }
                                ]
                            }
                        }
                    }
                }
            },
            {
                "name": "PartitionedCall/strided_slice_24/stack",
                "op": "Const",
                "attr": {
                    "value": {
                        "tensor": {
                            "dtype": "DT_INT32",
                            "tensorShape": {
                                "dim": [
                                    {
                                        "size": "1"
                                    }
                                ]
                            }
                        }
                    },
                    "dtype": {
                        "type": "DT_INT32"
                    }
                }
            },
            {
                "name": "PartitionedCall/strided_slice_24/stack_1",
                "op": "Const",
                "attr": {
                    "dtype": {
                        "type": "DT_INT32"
                    },
                    "value": {
                        "tensor": {
                            "dtype": "DT_INT32",
                            "tensorShape": {
                                "dim": [
                                    {
                                        "size": "1"
                                    }
                                ]
                            }
                        }
                    }
                }
            },
            {
                "name": "PartitionedCall/strided_slice_24/stack_2",
                "op": "Const",
                "attr": {
                    "dtype": {
                        "type": "DT_INT32"
                    },
                    "value": {
                        "tensor": {
                            "dtype": "DT_INT32",
                            "tensorShape": {
                                "dim": [
                                    {
                                        "size": "1"
                                    }
                                ]
                            }
                        }
                    }
                }
            },
            {
                "name": "PartitionedCall/strided_slice_25/stack",
                "op": "Const",
                "attr": {
                    "value": {
                        "tensor": {
                            "dtype": "DT_INT32",
                            "tensorShape": {
                                "dim": [
                                    {
                                        "size": "1"
                                    }
                                ]
                            }
                        }
                    },
                    "dtype": {
                        "type": "DT_INT32"
                    }
                }
            },
            {
                "name": "PartitionedCall/strided_slice_25/stack_1",
                "op": "Const",
                "attr": {
                    "dtype": {
                        "type": "DT_INT32"
                    },
                    "value": {
                        "tensor": {
                            "dtype": "DT_INT32",
                            "tensorShape": {
                                "dim": [
                                    {
                                        "size": "1"
                                    }
                                ]
                            }
                        }
                    }
                }
            },
            {
                "name": "PartitionedCall/strided_slice_25/stack_2",
                "op": "Const",
                "attr": {
                    "dtype": {
                        "type": "DT_INT32"
                    },
                    "value": {
                        "tensor": {
                            "dtype": "DT_INT32",
                            "tensorShape": {
                                "dim": [
                                    {
                                        "size": "1"
                                    }
                                ]
                            }
                        }
                    }
                }
            },
            {
                "name": "PartitionedCall/strided_slice_26/stack",
                "op": "Const",
                "attr": {
                    "value": {
                        "tensor": {
                            "dtype": "DT_INT32",
                            "tensorShape": {
                                "dim": [
                                    {
                                        "size": "1"
                                    }
                                ]
                            }
                        }
                    },
                    "dtype": {
                        "type": "DT_INT32"
                    }
                }
            },
            {
                "name": "PartitionedCall/strided_slice_26/stack_1",
                "op": "Const",
                "attr": {
                    "dtype": {
                        "type": "DT_INT32"
                    },
                    "value": {
                        "tensor": {
                            "dtype": "DT_INT32",
                            "tensorShape": {
                                "dim": [
                                    {
                                        "size": "1"
                                    }
                                ]
                            }
                        }
                    }
                }
            },
            {
                "name": "PartitionedCall/strided_slice_26/stack_2",
                "op": "Const",
                "attr": {
                    "value": {
                        "tensor": {
                            "dtype": "DT_INT32",
                            "tensorShape": {
                                "dim": [
                                    {
                                        "size": "1"
                                    }
                                ]
                            }
                        }
                    },
                    "dtype": {
                        "type": "DT_INT32"
                    }
                }
            },
            {
                "name": "PartitionedCall/strided_slice_23/stack",
                "op": "Const",
                "attr": {
                    "dtype": {
                        "type": "DT_INT32"
                    },
                    "value": {
                        "tensor": {
                            "dtype": "DT_INT32",
                            "tensorShape": {
                                "dim": [
                                    {
                                        "size": "1"
                                    }
                                ]
                            }
                        }
                    }
                }
            },
            {
                "name": "PartitionedCall/strided_slice_23/stack_1",
                "op": "Const",
                "attr": {
                    "value": {
                        "tensor": {
                            "dtype": "DT_INT32",
                            "tensorShape": {
                                "dim": [
                                    {
                                        "size": "1"
                                    }
                                ]
                            }
                        }
                    },
                    "dtype": {
                        "type": "DT_INT32"
                    }
                }
            },
            {
                "name": "PartitionedCall/strided_slice_23/stack_2",
                "op": "Const",
                "attr": {
                    "dtype": {
                        "type": "DT_INT32"
                    },
                    "value": {
                        "tensor": {
                            "dtype": "DT_INT32",
                            "tensorShape": {
                                "dim": [
                                    {
                                        "size": "1"
                                    }
                                ]
                            }
                        }
                    }
                }
            },
            {
                "name": "PartitionedCall/mul_6/x",
                "op": "Const",
                "attr": {
                    "value": {
                        "tensor": {
                            "dtype": "DT_INT32",
                            "tensorShape": {}
                        }
                    },
                    "dtype": {
                        "type": "DT_INT32"
                    }
                }
            },
            {
                "name": "PartitionedCall/strided_slice_21/stack",
                "op": "Const",
                "attr": {
                    "value": {
                        "tensor": {
                            "dtype": "DT_INT32",
                            "tensorShape": {
                                "dim": [
                                    {
                                        "size": "1"
                                    }
                                ]
                            }
                        }
                    },
                    "dtype": {
                        "type": "DT_INT32"
                    }
                }
            },
            {
                "name": "PartitionedCall/strided_slice_21/stack_1",
                "op": "Const",
                "attr": {
                    "value": {
                        "tensor": {
                            "dtype": "DT_INT32",
                            "tensorShape": {
                                "dim": [
                                    {
                                        "size": "1"
                                    }
                                ]
                            }
                        }
                    },
                    "dtype": {
                        "type": "DT_INT32"
                    }
                }
            },
            {
                "name": "PartitionedCall/strided_slice_21/stack_2",
                "op": "Const",
                "attr": {
                    "dtype": {
                        "type": "DT_INT32"
                    },
                    "value": {
                        "tensor": {
                            "dtype": "DT_INT32",
                            "tensorShape": {
                                "dim": [
                                    {
                                        "size": "1"
                                    }
                                ]
                            }
                        }
                    }
                }
            },
            {
                "name": "PartitionedCall/sub_18/y",
                "op": "Const",
                "attr": {
                    "dtype": {
                        "type": "DT_INT32"
                    },
                    "value": {
                        "tensor": {
                            "dtype": "DT_INT32",
                            "tensorShape": {}
                        }
                    }
                }
            },
            {
                "name": "PartitionedCall/add_48",
                "op": "Const",
                "attr": {
                    "value": {
                        "tensor": {
                            "dtype": "DT_INT32",
                            "tensorShape": {}
                        }
                    },
                    "dtype": {
                        "type": "DT_INT32"
                    }
                }
            },
            {
                "name": "PartitionedCall/mul_7/x",
                "op": "Const",
                "attr": {
                    "value": {
                        "tensor": {
                            "dtype": "DT_INT32",
                            "tensorShape": {}
                        }
                    },
                    "dtype": {
                        "type": "DT_INT32"
                    }
                }
            },
            {
                "name": "PartitionedCall/strided_slice_22/stack",
                "op": "Const",
                "attr": {
                    "value": {
                        "tensor": {
                            "dtype": "DT_INT32",
                            "tensorShape": {
                                "dim": [
                                    {
                                        "size": "1"
                                    }
                                ]
                            }
                        }
                    },
                    "dtype": {
                        "type": "DT_INT32"
                    }
                }
            },
            {
                "name": "PartitionedCall/strided_slice_22/stack_1",
                "op": "Const",
                "attr": {
                    "value": {
                        "tensor": {
                            "dtype": "DT_INT32",
                            "tensorShape": {
                                "dim": [
                                    {
                                        "size": "1"
                                    }
                                ]
                            }
                        }
                    },
                    "dtype": {
                        "type": "DT_INT32"
                    }
                }
            },
            {
                "name": "PartitionedCall/strided_slice_22/stack_2",
                "op": "Const",
                "attr": {
                    "value": {
                        "tensor": {
                            "dtype": "DT_INT32",
                            "tensorShape": {
                                "dim": [
                                    {
                                        "size": "1"
                                    }
                                ]
                            }
                        }
                    },
                    "dtype": {
                        "type": "DT_INT32"
                    }
                }
            },
            {
                "name": "PartitionedCall/sub_19/y",
                "op": "Const",
                "attr": {
                    "dtype": {
                        "type": "DT_INT32"
                    },
                    "value": {
                        "tensor": {
                            "dtype": "DT_INT32",
                            "tensorShape": {}
                        }
                    }
                }
            },
            {
                "name": "PartitionedCall/add_50",
                "op": "Const",
                "attr": {
                    "value": {
                        "tensor": {
                            "dtype": "DT_INT32",
                            "tensorShape": {}
                        }
                    },
                    "dtype": {
                        "type": "DT_INT32"
                    }
                }
            },
            {
                "name": "PartitionedCall/conv2d_transpose_3/input_sizes/3",
                "op": "Const",
                "attr": {
                    "dtype": {
                        "type": "DT_INT32"
                    },
                    "value": {
                        "tensor": {
                            "dtype": "DT_INT32",
                            "tensorShape": {}
                        }
                    }
                }
            },
            {
                "name": "PartitionedCall/split_36",
                "op": "Const",
                "attr": {
                    "value": {
                        "tensor": {
                            "dtype": "DT_FLOAT",
                            "tensorShape": {
                                "dim": [
                                    {
                                        "size": "2"
                                    },
                                    {
                                        "size": "2"
                                    },
                                    {
                                        "size": "96"
                                    },
                                    {
                                        "size": "144"
                                    }
                                ]
                            }
                        }
                    },
                    "dtype": {
                        "type": "DT_FLOAT"
                    }
                }
            },
            {
                "name": "PartitionedCall/Slice_2/begin",
                "op": "Const",
                "attr": {
                    "value": {
                        "tensor": {
                            "dtype": "DT_INT32",
                            "tensorShape": {
                                "dim": [
                                    {
                                        "size": "4"
                                    }
                                ]
                            }
                        }
                    },
                    "dtype": {
                        "type": "DT_INT32"
                    }
                }
            },
            {
                "name": "PartitionedCall/strided_slice_17/stack",
                "op": "Const",
                "attr": {
                    "dtype": {
                        "type": "DT_INT32"
                    },
                    "value": {
                        "tensor": {
                            "dtype": "DT_INT32",
                            "tensorShape": {
                                "dim": [
                                    {
                                        "size": "1"
                                    }
                                ]
                            }
                        }
                    }
                }
            },
            {
                "name": "PartitionedCall/strided_slice_17/stack_1",
                "op": "Const",
                "attr": {
                    "dtype": {
                        "type": "DT_INT32"
                    },
                    "value": {
                        "tensor": {
                            "dtype": "DT_INT32",
                            "tensorShape": {
                                "dim": [
                                    {
                                        "size": "1"
                                    }
                                ]
                            }
                        }
                    }
                }
            },
            {
                "name": "PartitionedCall/strided_slice_17/stack_2",
                "op": "Const",
                "attr": {
                    "dtype": {
                        "type": "DT_INT32"
                    },
                    "value": {
                        "tensor": {
                            "dtype": "DT_INT32",
                            "tensorShape": {
                                "dim": [
                                    {
                                        "size": "1"
                                    }
                                ]
                            }
                        }
                    }
                }
            },
            {
                "name": "PartitionedCall/strided_slice_18/stack",
                "op": "Const",
                "attr": {
                    "dtype": {
                        "type": "DT_INT32"
                    },
                    "value": {
                        "tensor": {
                            "dtype": "DT_INT32",
                            "tensorShape": {
                                "dim": [
                                    {
                                        "size": "1"
                                    }
                                ]
                            }
                        }
                    }
                }
            },
            {
                "name": "PartitionedCall/strided_slice_18/stack_1",
                "op": "Const",
                "attr": {
                    "value": {
                        "tensor": {
                            "dtype": "DT_INT32",
                            "tensorShape": {
                                "dim": [
                                    {
                                        "size": "1"
                                    }
                                ]
                            }
                        }
                    },
                    "dtype": {
                        "type": "DT_INT32"
                    }
                }
            },
            {
                "name": "PartitionedCall/strided_slice_18/stack_2",
                "op": "Const",
                "attr": {
                    "dtype": {
                        "type": "DT_INT32"
                    },
                    "value": {
                        "tensor": {
                            "dtype": "DT_INT32",
                            "tensorShape": {
                                "dim": [
                                    {
                                        "size": "1"
                                    }
                                ]
                            }
                        }
                    }
                }
            },
            {
                "name": "PartitionedCall/strided_slice_19/stack",
                "op": "Const",
                "attr": {
                    "dtype": {
                        "type": "DT_INT32"
                    },
                    "value": {
                        "tensor": {
                            "dtype": "DT_INT32",
                            "tensorShape": {
                                "dim": [
                                    {
                                        "size": "1"
                                    }
                                ]
                            }
                        }
                    }
                }
            },
            {
                "name": "PartitionedCall/strided_slice_19/stack_1",
                "op": "Const",
                "attr": {
                    "dtype": {
                        "type": "DT_INT32"
                    },
                    "value": {
                        "tensor": {
                            "dtype": "DT_INT32",
                            "tensorShape": {
                                "dim": [
                                    {
                                        "size": "1"
                                    }
                                ]
                            }
                        }
                    }
                }
            },
            {
                "name": "PartitionedCall/strided_slice_19/stack_2",
                "op": "Const",
                "attr": {
                    "value": {
                        "tensor": {
                            "dtype": "DT_INT32",
                            "tensorShape": {
                                "dim": [
                                    {
                                        "size": "1"
                                    }
                                ]
                            }
                        }
                    },
                    "dtype": {
                        "type": "DT_INT32"
                    }
                }
            },
            {
                "name": "PartitionedCall/strided_slice_16/stack",
                "op": "Const",
                "attr": {
                    "dtype": {
                        "type": "DT_INT32"
                    },
                    "value": {
                        "tensor": {
                            "dtype": "DT_INT32",
                            "tensorShape": {
                                "dim": [
                                    {
                                        "size": "1"
                                    }
                                ]
                            }
                        }
                    }
                }
            },
            {
                "name": "PartitionedCall/strided_slice_16/stack_1",
                "op": "Const",
                "attr": {
                    "value": {
                        "tensor": {
                            "dtype": "DT_INT32",
                            "tensorShape": {
                                "dim": [
                                    {
                                        "size": "1"
                                    }
                                ]
                            }
                        }
                    },
                    "dtype": {
                        "type": "DT_INT32"
                    }
                }
            },
            {
                "name": "PartitionedCall/strided_slice_16/stack_2",
                "op": "Const",
                "attr": {
                    "value": {
                        "tensor": {
                            "dtype": "DT_INT32",
                            "tensorShape": {
                                "dim": [
                                    {
                                        "size": "1"
                                    }
                                ]
                            }
                        }
                    },
                    "dtype": {
                        "type": "DT_INT32"
                    }
                }
            },
            {
                "name": "PartitionedCall/mul_4/x",
                "op": "Const",
                "attr": {
                    "value": {
                        "tensor": {
                            "dtype": "DT_INT32",
                            "tensorShape": {}
                        }
                    },
                    "dtype": {
                        "type": "DT_INT32"
                    }
                }
            },
            {
                "name": "PartitionedCall/strided_slice_14/stack",
                "op": "Const",
                "attr": {
                    "dtype": {
                        "type": "DT_INT32"
                    },
                    "value": {
                        "tensor": {
                            "dtype": "DT_INT32",
                            "tensorShape": {
                                "dim": [
                                    {
                                        "size": "1"
                                    }
                                ]
                            }
                        }
                    }
                }
            },
            {
                "name": "PartitionedCall/strided_slice_14/stack_1",
                "op": "Const",
                "attr": {
                    "value": {
                        "tensor": {
                            "dtype": "DT_INT32",
                            "tensorShape": {
                                "dim": [
                                    {
                                        "size": "1"
                                    }
                                ]
                            }
                        }
                    },
                    "dtype": {
                        "type": "DT_INT32"
                    }
                }
            },
            {
                "name": "PartitionedCall/strided_slice_14/stack_2",
                "op": "Const",
                "attr": {
                    "value": {
                        "tensor": {
                            "dtype": "DT_INT32",
                            "tensorShape": {
                                "dim": [
                                    {
                                        "size": "1"
                                    }
                                ]
                            }
                        }
                    },
                    "dtype": {
                        "type": "DT_INT32"
                    }
                }
            },
            {
                "name": "PartitionedCall/sub_12/y",
                "op": "Const",
                "attr": {
                    "dtype": {
                        "type": "DT_INT32"
                    },
                    "value": {
                        "tensor": {
                            "dtype": "DT_INT32",
                            "tensorShape": {}
                        }
                    }
                }
            },
            {
                "name": "PartitionedCall/add_40",
                "op": "Const",
                "attr": {
                    "value": {
                        "tensor": {
                            "dtype": "DT_INT32",
                            "tensorShape": {}
                        }
                    },
                    "dtype": {
                        "type": "DT_INT32"
                    }
                }
            },
            {
                "name": "PartitionedCall/mul_5/x",
                "op": "Const",
                "attr": {
                    "value": {
                        "tensor": {
                            "dtype": "DT_INT32",
                            "tensorShape": {}
                        }
                    },
                    "dtype": {
                        "type": "DT_INT32"
                    }
                }
            },
            {
                "name": "PartitionedCall/strided_slice_15/stack",
                "op": "Const",
                "attr": {
                    "value": {
                        "tensor": {
                            "dtype": "DT_INT32",
                            "tensorShape": {
                                "dim": [
                                    {
                                        "size": "1"
                                    }
                                ]
                            }
                        }
                    },
                    "dtype": {
                        "type": "DT_INT32"
                    }
                }
            },
            {
                "name": "PartitionedCall/strided_slice_15/stack_1",
                "op": "Const",
                "attr": {
                    "value": {
                        "tensor": {
                            "dtype": "DT_INT32",
                            "tensorShape": {
                                "dim": [
                                    {
                                        "size": "1"
                                    }
                                ]
                            }
                        }
                    },
                    "dtype": {
                        "type": "DT_INT32"
                    }
                }
            },
            {
                "name": "PartitionedCall/strided_slice_15/stack_2",
                "op": "Const",
                "attr": {
                    "value": {
                        "tensor": {
                            "dtype": "DT_INT32",
                            "tensorShape": {
                                "dim": [
                                    {
                                        "size": "1"
                                    }
                                ]
                            }
                        }
                    },
                    "dtype": {
                        "type": "DT_INT32"
                    }
                }
            },
            {
                "name": "PartitionedCall/sub_13/y",
                "op": "Const",
                "attr": {
                    "value": {
                        "tensor": {
                            "dtype": "DT_INT32",
                            "tensorShape": {}
                        }
                    },
                    "dtype": {
                        "type": "DT_INT32"
                    }
                }
            },
            {
                "name": "PartitionedCall/add_42",
                "op": "Const",
                "attr": {
                    "value": {
                        "tensor": {
                            "dtype": "DT_INT32",
                            "tensorShape": {}
                        }
                    },
                    "dtype": {
                        "type": "DT_INT32"
                    }
                }
            },
            {
                "name": "PartitionedCall/conv2d_transpose_2/input_sizes/3",
                "op": "Const",
                "attr": {
                    "dtype": {
                        "type": "DT_INT32"
                    },
                    "value": {
                        "tensor": {
                            "dtype": "DT_INT32",
                            "tensorShape": {}
                        }
                    }
                }
            },
            {
                "name": "PartitionedCall/split_32",
                "op": "Const",
                "attr": {
                    "value": {
                        "tensor": {
                            "dtype": "DT_FLOAT",
                            "tensorShape": {
                                "dim": [
                                    {
                                        "size": "2"
                                    },
                                    {
                                        "size": "2"
                                    },
                                    {
                                        "size": "144"
                                    },
                                    {
                                        "size": "192"
                                    }
                                ]
                            }
                        }
                    },
                    "dtype": {
                        "type": "DT_FLOAT"
                    }
                }
            },
            {
                "name": "PartitionedCall/Slice_1/begin",
                "op": "Const",
                "attr": {
                    "value": {
                        "tensor": {
                            "dtype": "DT_INT32",
                            "tensorShape": {
                                "dim": [
                                    {
                                        "size": "4"
                                    }
                                ]
                            }
                        }
                    },
                    "dtype": {
                        "type": "DT_INT32"
                    }
                }
            },
            {
                "name": "PartitionedCall/strided_slice_10/stack",
                "op": "Const",
                "attr": {
                    "dtype": {
                        "type": "DT_INT32"
                    },
                    "value": {
                        "tensor": {
                            "dtype": "DT_INT32",
                            "tensorShape": {
                                "dim": [
                                    {
                                        "size": "1"
                                    }
                                ]
                            }
                        }
                    }
                }
            },
            {
                "name": "PartitionedCall/strided_slice_10/stack_1",
                "op": "Const",
                "attr": {
                    "dtype": {
                        "type": "DT_INT32"
                    },
                    "value": {
                        "tensor": {
                            "dtype": "DT_INT32",
                            "tensorShape": {
                                "dim": [
                                    {
                                        "size": "1"
                                    }
                                ]
                            }
                        }
                    }
                }
            },
            {
                "name": "PartitionedCall/strided_slice_10/stack_2",
                "op": "Const",
                "attr": {
                    "dtype": {
                        "type": "DT_INT32"
                    },
                    "value": {
                        "tensor": {
                            "dtype": "DT_INT32",
                            "tensorShape": {
                                "dim": [
                                    {
                                        "size": "1"
                                    }
                                ]
                            }
                        }
                    }
                }
            },
            {
                "name": "PartitionedCall/strided_slice_11/stack",
                "op": "Const",
                "attr": {
                    "value": {
                        "tensor": {
                            "dtype": "DT_INT32",
                            "tensorShape": {
                                "dim": [
                                    {
                                        "size": "1"
                                    }
                                ]
                            }
                        }
                    },
                    "dtype": {
                        "type": "DT_INT32"
                    }
                }
            },
            {
                "name": "PartitionedCall/strided_slice_11/stack_1",
                "op": "Const",
                "attr": {
                    "dtype": {
                        "type": "DT_INT32"
                    },
                    "value": {
                        "tensor": {
                            "dtype": "DT_INT32",
                            "tensorShape": {
                                "dim": [
                                    {
                                        "size": "1"
                                    }
                                ]
                            }
                        }
                    }
                }
            },
            {
                "name": "PartitionedCall/strided_slice_11/stack_2",
                "op": "Const",
                "attr": {
                    "value": {
                        "tensor": {
                            "dtype": "DT_INT32",
                            "tensorShape": {
                                "dim": [
                                    {
                                        "size": "1"
                                    }
                                ]
                            }
                        }
                    },
                    "dtype": {
                        "type": "DT_INT32"
                    }
                }
            },
            {
                "name": "PartitionedCall/strided_slice_12/stack",
                "op": "Const",
                "attr": {
                    "value": {
                        "tensor": {
                            "dtype": "DT_INT32",
                            "tensorShape": {
                                "dim": [
                                    {
                                        "size": "1"
                                    }
                                ]
                            }
                        }
                    },
                    "dtype": {
                        "type": "DT_INT32"
                    }
                }
            },
            {
                "name": "PartitionedCall/strided_slice_12/stack_1",
                "op": "Const",
                "attr": {
                    "value": {
                        "tensor": {
                            "dtype": "DT_INT32",
                            "tensorShape": {
                                "dim": [
                                    {
                                        "size": "1"
                                    }
                                ]
                            }
                        }
                    },
                    "dtype": {
                        "type": "DT_INT32"
                    }
                }
            },
            {
                "name": "PartitionedCall/strided_slice_12/stack_2",
                "op": "Const",
                "attr": {
                    "value": {
                        "tensor": {
                            "dtype": "DT_INT32",
                            "tensorShape": {
                                "dim": [
                                    {
                                        "size": "1"
                                    }
                                ]
                            }
                        }
                    },
                    "dtype": {
                        "type": "DT_INT32"
                    }
                }
            },
            {
                "name": "PartitionedCall/strided_slice_9/stack",
                "op": "Const",
                "attr": {
                    "value": {
                        "tensor": {
                            "dtype": "DT_INT32",
                            "tensorShape": {
                                "dim": [
                                    {
                                        "size": "1"
                                    }
                                ]
                            }
                        }
                    },
                    "dtype": {
                        "type": "DT_INT32"
                    }
                }
            },
            {
                "name": "PartitionedCall/strided_slice_9/stack_1",
                "op": "Const",
                "attr": {
                    "dtype": {
                        "type": "DT_INT32"
                    },
                    "value": {
                        "tensor": {
                            "dtype": "DT_INT32",
                            "tensorShape": {
                                "dim": [
                                    {
                                        "size": "1"
                                    }
                                ]
                            }
                        }
                    }
                }
            },
            {
                "name": "PartitionedCall/strided_slice_9/stack_2",
                "op": "Const",
                "attr": {
                    "value": {
                        "tensor": {
                            "dtype": "DT_INT32",
                            "tensorShape": {
                                "dim": [
                                    {
                                        "size": "1"
                                    }
                                ]
                            }
                        }
                    },
                    "dtype": {
                        "type": "DT_INT32"
                    }
                }
            },
            {
                "name": "PartitionedCall/mul_2/x",
                "op": "Const",
                "attr": {
                    "dtype": {
                        "type": "DT_INT32"
                    },
                    "value": {
                        "tensor": {
                            "dtype": "DT_INT32",
                            "tensorShape": {}
                        }
                    }
                }
            },
            {
                "name": "PartitionedCall/strided_slice_7/stack",
                "op": "Const",
                "attr": {
                    "value": {
                        "tensor": {
                            "dtype": "DT_INT32",
                            "tensorShape": {
                                "dim": [
                                    {
                                        "size": "1"
                                    }
                                ]
                            }
                        }
                    },
                    "dtype": {
                        "type": "DT_INT32"
                    }
                }
            },
            {
                "name": "PartitionedCall/strided_slice_7/stack_1",
                "op": "Const",
                "attr": {
                    "dtype": {
                        "type": "DT_INT32"
                    },
                    "value": {
                        "tensor": {
                            "dtype": "DT_INT32",
                            "tensorShape": {
                                "dim": [
                                    {
                                        "size": "1"
                                    }
                                ]
                            }
                        }
                    }
                }
            },
            {
                "name": "PartitionedCall/strided_slice_7/stack_2",
                "op": "Const",
                "attr": {
                    "value": {
                        "tensor": {
                            "dtype": "DT_INT32",
                            "tensorShape": {
                                "dim": [
                                    {
                                        "size": "1"
                                    }
                                ]
                            }
                        }
                    },
                    "dtype": {
                        "type": "DT_INT32"
                    }
                }
            },
            {
                "name": "PartitionedCall/sub_6/y",
                "op": "Const",
                "attr": {
                    "dtype": {
                        "type": "DT_INT32"
                    },
                    "value": {
                        "tensor": {
                            "dtype": "DT_INT32",
                            "tensorShape": {}
                        }
                    }
                }
            },
            {
                "name": "PartitionedCall/add_32",
                "op": "Const",
                "attr": {
                    "dtype": {
                        "type": "DT_INT32"
                    },
                    "value": {
                        "tensor": {
                            "dtype": "DT_INT32",
                            "tensorShape": {}
                        }
                    }
                }
            },
            {
                "name": "PartitionedCall/mul_3/x",
                "op": "Const",
                "attr": {
                    "value": {
                        "tensor": {
                            "dtype": "DT_INT32",
                            "tensorShape": {}
                        }
                    },
                    "dtype": {
                        "type": "DT_INT32"
                    }
                }
            },
            {
                "name": "PartitionedCall/strided_slice_8/stack",
                "op": "Const",
                "attr": {
                    "dtype": {
                        "type": "DT_INT32"
                    },
                    "value": {
                        "tensor": {
                            "dtype": "DT_INT32",
                            "tensorShape": {
                                "dim": [
                                    {
                                        "size": "1"
                                    }
                                ]
                            }
                        }
                    }
                }
            },
            {
                "name": "PartitionedCall/strided_slice_8/stack_1",
                "op": "Const",
                "attr": {
                    "dtype": {
                        "type": "DT_INT32"
                    },
                    "value": {
                        "tensor": {
                            "dtype": "DT_INT32",
                            "tensorShape": {
                                "dim": [
                                    {
                                        "size": "1"
                                    }
                                ]
                            }
                        }
                    }
                }
            },
            {
                "name": "PartitionedCall/strided_slice_8/stack_2",
                "op": "Const",
                "attr": {
                    "dtype": {
                        "type": "DT_INT32"
                    },
                    "value": {
                        "tensor": {
                            "dtype": "DT_INT32",
                            "tensorShape": {
                                "dim": [
                                    {
                                        "size": "1"
                                    }
                                ]
                            }
                        }
                    }
                }
            },
            {
                "name": "PartitionedCall/sub_7/y",
                "op": "Const",
                "attr": {
                    "value": {
                        "tensor": {
                            "dtype": "DT_INT32",
                            "tensorShape": {}
                        }
                    },
                    "dtype": {
                        "type": "DT_INT32"
                    }
                }
            },
            {
                "name": "PartitionedCall/add_34",
                "op": "Const",
                "attr": {
                    "dtype": {
                        "type": "DT_INT32"
                    },
                    "value": {
                        "tensor": {
                            "dtype": "DT_INT32",
                            "tensorShape": {}
                        }
                    }
                }
            },
            {
                "name": "PartitionedCall/conv2d_transpose_1/input_sizes/3",
                "op": "Const",
                "attr": {
                    "value": {
                        "tensor": {
                            "dtype": "DT_INT32",
                            "tensorShape": {}
                        }
                    },
                    "dtype": {
                        "type": "DT_INT32"
                    }
                }
            },
            {
                "name": "PartitionedCall/split_28",
                "op": "Const",
                "attr": {
                    "dtype": {
                        "type": "DT_FLOAT"
                    },
                    "value": {
                        "tensor": {
                            "dtype": "DT_FLOAT",
                            "tensorShape": {
                                "dim": [
                                    {
                                        "size": "2"
                                    },
                                    {
                                        "size": "2"
                                    },
                                    {
                                        "size": "192"
                                    },
                                    {
                                        "size": "240"
                                    }
                                ]
                            }
                        }
                    }
                }
            },
            {
                "name": "PartitionedCall/Slice/begin",
                "op": "Const",
                "attr": {
                    "dtype": {
                        "type": "DT_INT32"
                    },
                    "value": {
                        "tensor": {
                            "dtype": "DT_INT32",
                            "tensorShape": {
                                "dim": [
                                    {
                                        "size": "4"
                                    }
                                ]
                            }
                        }
                    }
                }
            },
            {
                "name": "PartitionedCall/strided_slice_3/stack",
                "op": "Const",
                "attr": {
                    "dtype": {
                        "type": "DT_INT32"
                    },
                    "value": {
                        "tensor": {
                            "dtype": "DT_INT32",
                            "tensorShape": {
                                "dim": [
                                    {
                                        "size": "1"
                                    }
                                ]
                            }
                        }
                    }
                }
            },
            {
                "name": "PartitionedCall/strided_slice_3/stack_1",
                "op": "Const",
                "attr": {
                    "value": {
                        "tensor": {
                            "dtype": "DT_INT32",
                            "tensorShape": {
                                "dim": [
                                    {
                                        "size": "1"
                                    }
                                ]
                            }
                        }
                    },
                    "dtype": {
                        "type": "DT_INT32"
                    }
                }
            },
            {
                "name": "PartitionedCall/strided_slice_3/stack_2",
                "op": "Const",
                "attr": {
                    "value": {
                        "tensor": {
                            "dtype": "DT_INT32",
                            "tensorShape": {
                                "dim": [
                                    {
                                        "size": "1"
                                    }
                                ]
                            }
                        }
                    },
                    "dtype": {
                        "type": "DT_INT32"
                    }
                }
            },
            {
                "name": "PartitionedCall/strided_slice_4/stack",
                "op": "Const",
                "attr": {
                    "dtype": {
                        "type": "DT_INT32"
                    },
                    "value": {
                        "tensor": {
                            "dtype": "DT_INT32",
                            "tensorShape": {
                                "dim": [
                                    {
                                        "size": "1"
                                    }
                                ]
                            }
                        }
                    }
                }
            },
            {
                "name": "PartitionedCall/strided_slice_4/stack_1",
                "op": "Const",
                "attr": {
                    "dtype": {
                        "type": "DT_INT32"
                    },
                    "value": {
                        "tensor": {
                            "dtype": "DT_INT32",
                            "tensorShape": {
                                "dim": [
                                    {
                                        "size": "1"
                                    }
                                ]
                            }
                        }
                    }
                }
            },
            {
                "name": "PartitionedCall/strided_slice_4/stack_2",
                "op": "Const",
                "attr": {
                    "value": {
                        "tensor": {
                            "dtype": "DT_INT32",
                            "tensorShape": {
                                "dim": [
                                    {
                                        "size": "1"
                                    }
                                ]
                            }
                        }
                    },
                    "dtype": {
                        "type": "DT_INT32"
                    }
                }
            },
            {
                "name": "PartitionedCall/strided_slice_5/stack",
                "op": "Const",
                "attr": {
                    "dtype": {
                        "type": "DT_INT32"
                    },
                    "value": {
                        "tensor": {
                            "dtype": "DT_INT32",
                            "tensorShape": {
                                "dim": [
                                    {
                                        "size": "1"
                                    }
                                ]
                            }
                        }
                    }
                }
            },
            {
                "name": "PartitionedCall/strided_slice_5/stack_1",
                "op": "Const",
                "attr": {
                    "dtype": {
                        "type": "DT_INT32"
                    },
                    "value": {
                        "tensor": {
                            "dtype": "DT_INT32",
                            "tensorShape": {
                                "dim": [
                                    {
                                        "size": "1"
                                    }
                                ]
                            }
                        }
                    }
                }
            },
            {
                "name": "PartitionedCall/strided_slice_5/stack_2",
                "op": "Const",
                "attr": {
                    "dtype": {
                        "type": "DT_INT32"
                    },
                    "value": {
                        "tensor": {
                            "dtype": "DT_INT32",
                            "tensorShape": {
                                "dim": [
                                    {
                                        "size": "1"
                                    }
                                ]
                            }
                        }
                    }
                }
            },
            {
                "name": "PartitionedCall/strided_slice_2/stack",
                "op": "Const",
                "attr": {
                    "dtype": {
                        "type": "DT_INT32"
                    },
                    "value": {
                        "tensor": {
                            "dtype": "DT_INT32",
                            "tensorShape": {
                                "dim": [
                                    {
                                        "size": "1"
                                    }
                                ]
                            }
                        }
                    }
                }
            },
            {
                "name": "PartitionedCall/strided_slice_2/stack_1",
                "op": "Const",
                "attr": {
                    "dtype": {
                        "type": "DT_INT32"
                    },
                    "value": {
                        "tensor": {
                            "dtype": "DT_INT32",
                            "tensorShape": {
                                "dim": [
                                    {
                                        "size": "1"
                                    }
                                ]
                            }
                        }
                    }
                }
            },
            {
                "name": "PartitionedCall/strided_slice_2/stack_2",
                "op": "Const",
                "attr": {
                    "value": {
                        "tensor": {
                            "dtype": "DT_INT32",
                            "tensorShape": {
                                "dim": [
                                    {
                                        "size": "1"
                                    }
                                ]
                            }
                        }
                    },
                    "dtype": {
                        "type": "DT_INT32"
                    }
                }
            },
            {
                "name": "PartitionedCall/mul/x",
                "op": "Const",
                "attr": {
                    "value": {
                        "tensor": {
                            "dtype": "DT_INT32",
                            "tensorShape": {}
                        }
                    },
                    "dtype": {
                        "type": "DT_INT32"
                    }
                }
            },
            {
                "name": "PartitionedCall/strided_slice/stack",
                "op": "Const",
                "attr": {
                    "dtype": {
                        "type": "DT_INT32"
                    },
                    "value": {
                        "tensor": {
                            "dtype": "DT_INT32",
                            "tensorShape": {
                                "dim": [
                                    {
                                        "size": "1"
                                    }
                                ]
                            }
                        }
                    }
                }
            },
            {
                "name": "PartitionedCall/strided_slice/stack_1",
                "op": "Const",
                "attr": {
                    "value": {
                        "tensor": {
                            "dtype": "DT_INT32",
                            "tensorShape": {
                                "dim": [
                                    {
                                        "size": "1"
                                    }
                                ]
                            }
                        }
                    },
                    "dtype": {
                        "type": "DT_INT32"
                    }
                }
            },
            {
                "name": "PartitionedCall/strided_slice/stack_2",
                "op": "Const",
                "attr": {
                    "dtype": {
                        "type": "DT_INT32"
                    },
                    "value": {
                        "tensor": {
                            "dtype": "DT_INT32",
                            "tensorShape": {
                                "dim": [
                                    {
                                        "size": "1"
                                    }
                                ]
                            }
                        }
                    }
                }
            },
            {
                "name": "PartitionedCall/sub/y",
                "op": "Const",
                "attr": {
                    "dtype": {
                        "type": "DT_INT32"
                    },
                    "value": {
                        "tensor": {
                            "dtype": "DT_INT32",
                            "tensorShape": {}
                        }
                    }
                }
            },
            {
                "name": "PartitionedCall/add_24",
                "op": "Const",
                "attr": {
                    "dtype": {
                        "type": "DT_INT32"
                    },
                    "value": {
                        "tensor": {
                            "dtype": "DT_INT32",
                            "tensorShape": {}
                        }
                    }
                }
            },
            {
                "name": "PartitionedCall/mul_1/x",
                "op": "Const",
                "attr": {
                    "value": {
                        "tensor": {
                            "dtype": "DT_INT32",
                            "tensorShape": {}
                        }
                    },
                    "dtype": {
                        "type": "DT_INT32"
                    }
                }
            },
            {
                "name": "PartitionedCall/strided_slice_1/stack",
                "op": "Const",
                "attr": {
                    "value": {
                        "tensor": {
                            "dtype": "DT_INT32",
                            "tensorShape": {
                                "dim": [
                                    {
                                        "size": "1"
                                    }
                                ]
                            }
                        }
                    },
                    "dtype": {
                        "type": "DT_INT32"
                    }
                }
            },
            {
                "name": "PartitionedCall/strided_slice_1/stack_1",
                "op": "Const",
                "attr": {
                    "dtype": {
                        "type": "DT_INT32"
                    },
                    "value": {
                        "tensor": {
                            "dtype": "DT_INT32",
                            "tensorShape": {
                                "dim": [
                                    {
                                        "size": "1"
                                    }
                                ]
                            }
                        }
                    }
                }
            },
            {
                "name": "PartitionedCall/strided_slice_1/stack_2",
                "op": "Const",
                "attr": {
                    "value": {
                        "tensor": {
                            "dtype": "DT_INT32",
                            "tensorShape": {
                                "dim": [
                                    {
                                        "size": "1"
                                    }
                                ]
                            }
                        }
                    },
                    "dtype": {
                        "type": "DT_INT32"
                    }
                }
            },
            {
                "name": "PartitionedCall/sub_1/y",
                "op": "Const",
                "attr": {
                    "dtype": {
                        "type": "DT_INT32"
                    },
                    "value": {
                        "tensor": {
                            "dtype": "DT_INT32",
                            "tensorShape": {}
                        }
                    }
                }
            },
            {
                "name": "PartitionedCall/add_26",
                "op": "Const",
                "attr": {
                    "value": {
                        "tensor": {
                            "dtype": "DT_INT32",
                            "tensorShape": {}
                        }
                    },
                    "dtype": {
                        "type": "DT_INT32"
                    }
                }
            },
            {
                "name": "PartitionedCall/conv2d_transpose/input_sizes/3",
                "op": "Const",
                "attr": {
                    "value": {
                        "tensor": {
                            "dtype": "DT_INT32",
                            "tensorShape": {}
                        }
                    },
                    "dtype": {
                        "type": "DT_INT32"
                    }
                }
            },
            {
                "name": "PartitionedCall/split_24",
                "op": "Const",
                "attr": {
                    "dtype": {
                        "type": "DT_FLOAT"
                    },
                    "value": {
                        "tensor": {
                            "dtype": "DT_FLOAT",
                            "tensorShape": {
                                "dim": [
                                    {
                                        "size": "2"
                                    },
                                    {
                                        "size": "2"
                                    },
                                    {
                                        "size": "240"
                                    },
                                    {
                                        "size": "288"
                                    }
                                ]
                            }
                        }
                    }
                }
            },
            {
                "name": "PartitionedCall/transpose_61/perm",
                "op": "Const",
                "attr": {
                    "value": {
                        "tensor": {
                            "dtype": "DT_INT32",
                            "tensorShape": {
                                "dim": [
                                    {
                                        "size": "4"
                                    }
                                ]
                            }
                        }
                    },
                    "dtype": {
                        "type": "DT_INT32"
                    }
                }
            },
            {
                "name": "PartitionedCall/split_20",
                "op": "Const",
                "attr": {
                    "value": {
                        "tensor": {
                            "dtype": "DT_FLOAT",
                            "tensorShape": {
                                "dim": [
                                    {
                                        "size": "2"
                                    },
                                    {
                                        "size": "2"
                                    },
                                    {
                                        "size": "240"
                                    },
                                    {
                                        "size": "288"
                                    }
                                ]
                            }
                        }
                    },
                    "dtype": {
                        "type": "DT_FLOAT"
                    }
                }
            },
            {
                "name": "unknown_90",
                "op": "Const",
                "attr": {
                    "dtype": {
                        "type": "DT_FLOAT"
                    },
                    "value": {
                        "tensor": {
                            "dtype": "DT_FLOAT",
                            "tensorShape": {
                                "dim": [
                                    {
                                        "size": "288"
                                    }
                                ]
                            }
                        }
                    }
                }
            },
            {
                "name": "PartitionedCall/transpose_62/perm",
                "op": "Const",
                "attr": {
                    "dtype": {
                        "type": "DT_INT32"
                    },
                    "value": {
                        "tensor": {
                            "dtype": "DT_INT32",
                            "tensorShape": {
                                "dim": [
                                    {
                                        "size": "4"
                                    }
                                ]
                            }
                        }
                    }
                }
            },
            {
                "name": "PartitionedCall/Const_15",
                "op": "Const",
                "attr": {
                    "dtype": {
                        "type": "DT_INT32"
                    },
                    "value": {
                        "tensor": {
                            "dtype": "DT_INT32",
                            "tensorShape": {
                                "dim": [
                                    {
                                        "size": "4"
                                    },
                                    {
                                        "size": "2"
                                    }
                                ]
                            }
                        }
                    }
                }
            },
            {
                "name": "PartitionedCall/transpose_64/perm",
                "op": "Const",
                "attr": {
                    "dtype": {
                        "type": "DT_INT32"
                    },
                    "value": {
                        "tensor": {
                            "dtype": "DT_INT32",
                            "tensorShape": {
                                "dim": [
                                    {
                                        "size": "4"
                                    }
                                ]
                            }
                        }
                    }
                }
            },
            {
                "name": "PartitionedCall/split_21",
                "op": "Const",
                "attr": {
                    "value": {
                        "tensor": {
                            "dtype": "DT_FLOAT",
                            "tensorShape": {
                                "dim": [
                                    {
                                        "size": "3"
                                    },
                                    {
                                        "size": "3"
                                    },
                                    {
                                        "size": "288"
                                    },
                                    {
                                        "size": "288"
                                    }
                                ]
                            }
                        }
                    },
                    "dtype": {
                        "type": "DT_FLOAT"
                    }
                }
            },
            {
                "name": "unknown_92",
                "op": "Const",
                "attr": {
                    "dtype": {
                        "type": "DT_FLOAT"
                    },
                    "value": {
                        "tensor": {
                            "dtype": "DT_FLOAT",
                            "tensorShape": {
                                "dim": [
                                    {
                                        "size": "288"
                                    }
                                ]
                            }
                        }
                    }
                }
            },
            {
                "name": "PartitionedCall/transpose_65/perm",
                "op": "Const",
                "attr": {
                    "value": {
                        "tensor": {
                            "dtype": "DT_INT32",
                            "tensorShape": {
                                "dim": [
                                    {
                                        "size": "4"
                                    }
                                ]
                            }
                        }
                    },
                    "dtype": {
                        "type": "DT_INT32"
                    }
                }
            },
            {
                "name": "PartitionedCall/Const_16",
                "op": "Const",
                "attr": {
                    "value": {
                        "tensor": {
                            "dtype": "DT_INT32",
                            "tensorShape": {
                                "dim": [
                                    {
                                        "size": "4"
                                    },
                                    {
                                        "size": "2"
                                    }
                                ]
                            }
                        }
                    },
                    "dtype": {
                        "type": "DT_INT32"
                    }
                }
            },
            {
                "name": "PartitionedCall/transpose_67/perm",
                "op": "Const",
                "attr": {
                    "value": {
                        "tensor": {
                            "dtype": "DT_INT32",
                            "tensorShape": {
                                "dim": [
                                    {
                                        "size": "4"
                                    }
                                ]
                            }
                        }
                    },
                    "dtype": {
                        "type": "DT_INT32"
                    }
                }
            },
            {
                "name": "PartitionedCall/split_22",
                "op": "Const",
                "attr": {
                    "value": {
                        "tensor": {
                            "dtype": "DT_FLOAT",
                            "tensorShape": {
                                "dim": [
                                    {
                                        "size": "3"
                                    },
                                    {
                                        "size": "3"
                                    },
                                    {
                                        "size": "288"
                                    },
                                    {
                                        "size": "288"
                                    }
                                ]
                            }
                        }
                    },
                    "dtype": {
                        "type": "DT_FLOAT"
                    }
                }
            },
            {
                "name": "unknown_94",
                "op": "Const",
                "attr": {
                    "dtype": {
                        "type": "DT_FLOAT"
                    },
                    "value": {
                        "tensor": {
                            "dtype": "DT_FLOAT",
                            "tensorShape": {
                                "dim": [
                                    {
                                        "size": "288"
                                    }
                                ]
                            }
                        }
                    }
                }
            },
            {
                "name": "PartitionedCall/transpose_68/perm",
                "op": "Const",
                "attr": {
                    "dtype": {
                        "type": "DT_INT32"
                    },
                    "value": {
                        "tensor": {
                            "dtype": "DT_INT32",
                            "tensorShape": {
                                "dim": [
                                    {
                                        "size": "4"
                                    }
                                ]
                            }
                        }
                    }
                }
            },
            {
                "name": "PartitionedCall/Const_17",
                "op": "Const",
                "attr": {
                    "dtype": {
                        "type": "DT_INT32"
                    },
                    "value": {
                        "tensor": {
                            "dtype": "DT_INT32",
                            "tensorShape": {
                                "dim": [
                                    {
                                        "size": "4"
                                    },
                                    {
                                        "size": "2"
                                    }
                                ]
                            }
                        }
                    }
                }
            },
            {
                "name": "PartitionedCall/transpose_70/perm",
                "op": "Const",
                "attr": {
                    "value": {
                        "tensor": {
                            "dtype": "DT_INT32",
                            "tensorShape": {
                                "dim": [
                                    {
                                        "size": "4"
                                    }
                                ]
                            }
                        }
                    },
                    "dtype": {
                        "type": "DT_INT32"
                    }
                }
            },
            {
                "name": "PartitionedCall/split_23",
                "op": "Const",
                "attr": {
                    "value": {
                        "tensor": {
                            "dtype": "DT_FLOAT",
                            "tensorShape": {
                                "dim": [
                                    {
                                        "size": "3"
                                    },
                                    {
                                        "size": "3"
                                    },
                                    {
                                        "size": "288"
                                    },
                                    {
                                        "size": "288"
                                    }
                                ]
                            }
                        }
                    },
                    "dtype": {
                        "type": "DT_FLOAT"
                    }
                }
            },
            {
                "name": "unknown_96",
                "op": "Const",
                "attr": {
                    "dtype": {
                        "type": "DT_FLOAT"
                    },
                    "value": {
                        "tensor": {
                            "dtype": "DT_FLOAT",
                            "tensorShape": {
                                "dim": [
                                    {
                                        "size": "288"
                                    }
                                ]
                            }
                        }
                    }
                }
            },
            {
                "name": "PartitionedCall/transpose_71/perm",
                "op": "Const",
                "attr": {
                    "dtype": {
                        "type": "DT_INT32"
                    },
                    "value": {
                        "tensor": {
                            "dtype": "DT_INT32",
                            "tensorShape": {
                                "dim": [
                                    {
                                        "size": "4"
                                    }
                                ]
                            }
                        }
                    }
                }
            },
            {
                "name": "unknown_97",
                "op": "Const",
                "attr": {
                    "dtype": {
                        "type": "DT_FLOAT"
                    },
                    "value": {
                        "tensor": {
                            "dtype": "DT_FLOAT",
                            "tensorShape": {
                                "dim": [
                                    {
                                        "size": "96"
                                    },
                                    {
                                        "size": "12"
                                    }
                                ]
                            }
                        }
                    }
                }
            },
            {
                "name": "PartitionedCall/onnx_tf_prefix_BatchNormalization_85/mul",
                "op": "Const",
                "attr": {
                    "dtype": {
                        "type": "DT_FLOAT"
                    },
                    "value": {
                        "tensor": {
                            "dtype": "DT_FLOAT",
                            "tensorShape": {
                                "dim": [
                                    {
                                        "size": "1"
                                    },
                                    {
                                        "size": "288"
                                    },
                                    {
                                        "size": "1"
                                    },
                                    {
                                        "size": "1"
                                    }
                                ]
                            }
                        }
                    }
                }
            },
            {
                "name": "PartitionedCall/onnx_tf_prefix_BatchNormalization_85/sub",
                "op": "Const",
                "attr": {
                    "value": {
                        "tensor": {
                            "dtype": "DT_FLOAT",
                            "tensorShape": {
                                "dim": [
                                    {
                                        "size": "1"
                                    },
                                    {
                                        "size": "288"
                                    },
                                    {
                                        "size": "1"
                                    },
                                    {
                                        "size": "1"
                                    }
                                ]
                            }
                        }
                    },
                    "dtype": {
                        "type": "DT_FLOAT"
                    }
                }
            },
            {
                "name": "unknown_102",
                "op": "Const",
                "attr": {
                    "value": {
                        "tensor": {
                            "dtype": "DT_FLOAT",
                            "tensorShape": {
                                "dim": [
                                    {
                                        "size": "12"
                                    },
                                    {
                                        "size": "96"
                                    }
                                ]
                            }
                        }
                    },
                    "dtype": {
                        "type": "DT_FLOAT"
                    }
                }
            },
            {
                "name": "PartitionedCall/onnx_tf_prefix_BatchNormalization_88/mul",
                "op": "Const",
                "attr": {
                    "dtype": {
                        "type": "DT_FLOAT"
                    },
                    "value": {
                        "tensor": {
                            "dtype": "DT_FLOAT",
                            "tensorShape": {
                                "dim": [
                                    {
                                        "size": "1"
                                    },
                                    {
                                        "size": "288"
                                    },
                                    {
                                        "size": "1"
                                    },
                                    {
                                        "size": "1"
                                    }
                                ]
                            }
                        }
                    }
                }
            },
            {
                "name": "PartitionedCall/onnx_tf_prefix_BatchNormalization_88/sub",
                "op": "Const",
                "attr": {
                    "dtype": {
                        "type": "DT_FLOAT"
                    },
                    "value": {
                        "tensor": {
                            "dtype": "DT_FLOAT",
                            "tensorShape": {
                                "dim": [
                                    {
                                        "size": "1"
                                    },
                                    {
                                        "size": "288"
                                    },
                                    {
                                        "size": "1"
                                    },
                                    {
                                        "size": "1"
                                    }
                                ]
                            }
                        }
                    }
                }
            },
            {
                "name": "PartitionedCall/transpose_73/perm",
                "op": "Const",
                "attr": {
                    "value": {
                        "tensor": {
                            "dtype": "DT_INT32",
                            "tensorShape": {
                                "dim": [
                                    {
                                        "size": "4"
                                    }
                                ]
                            }
                        }
                    },
                    "dtype": {
                        "type": "DT_INT32"
                    }
                }
            },
            {
                "name": "PartitionedCall/strided_slice_6/stack",
                "op": "Const",
                "attr": {
                    "dtype": {
                        "type": "DT_INT32"
                    },
                    "value": {
                        "tensor": {
                            "dtype": "DT_INT32",
                            "tensorShape": {
                                "dim": [
                                    {
                                        "size": "1"
                                    }
                                ]
                            }
                        }
                    }
                }
            },
            {
                "name": "PartitionedCall/strided_slice_6/stack_1",
                "op": "Const",
                "attr": {
                    "value": {
                        "tensor": {
                            "dtype": "DT_INT32",
                            "tensorShape": {
                                "dim": [
                                    {
                                        "size": "1"
                                    }
                                ]
                            }
                        }
                    },
                    "dtype": {
                        "type": "DT_INT32"
                    }
                }
            },
            {
                "name": "PartitionedCall/strided_slice_6/stack_2",
                "op": "Const",
                "attr": {
                    "dtype": {
                        "type": "DT_INT32"
                    },
                    "value": {
                        "tensor": {
                            "dtype": "DT_INT32",
                            "tensorShape": {
                                "dim": [
                                    {
                                        "size": "1"
                                    }
                                ]
                            }
                        }
                    }
                }
            },
            {
                "name": "unknown_108",
                "op": "Const",
                "attr": {
                    "value": {
                        "tensor": {
                            "dtype": "DT_FLOAT",
                            "tensorShape": {
                                "dim": [
                                    {
                                        "size": "240"
                                    }
                                ]
                            }
                        }
                    },
                    "dtype": {
                        "type": "DT_FLOAT"
                    }
                }
            },
            {
                "name": "PartitionedCall/transpose_74/perm",
                "op": "Const",
                "attr": {
                    "value": {
                        "tensor": {
                            "dtype": "DT_INT32",
                            "tensorShape": {
                                "dim": [
                                    {
                                        "size": "4"
                                    }
                                ]
                            }
                        }
                    },
                    "dtype": {
                        "type": "DT_INT32"
                    }
                }
            },
            {
                "name": "PartitionedCall/onnx_tf_prefix_BatchNormalization_92/mul",
                "op": "Const",
                "attr": {
                    "dtype": {
                        "type": "DT_FLOAT"
                    },
                    "value": {
                        "tensor": {
                            "dtype": "DT_FLOAT",
                            "tensorShape": {
                                "dim": [
                                    {
                                        "size": "1"
                                    },
                                    {
                                        "size": "240"
                                    },
                                    {
                                        "size": "1"
                                    },
                                    {
                                        "size": "1"
                                    }
                                ]
                            }
                        }
                    }
                }
            },
            {
                "name": "PartitionedCall/onnx_tf_prefix_BatchNormalization_92/sub",
                "op": "Const",
                "attr": {
                    "value": {
                        "tensor": {
                            "dtype": "DT_FLOAT",
                            "tensorShape": {
                                "dim": [
                                    {
                                        "size": "1"
                                    },
                                    {
                                        "size": "240"
                                    },
                                    {
                                        "size": "1"
                                    },
                                    {
                                        "size": "1"
                                    }
                                ]
                            }
                        }
                    },
                    "dtype": {
                        "type": "DT_FLOAT"
                    }
                }
            },
            {
                "name": "PartitionedCall/transpose_49/perm",
                "op": "Const",
                "attr": {
                    "dtype": {
                        "type": "DT_INT32"
                    },
                    "value": {
                        "tensor": {
                            "dtype": "DT_INT32",
                            "tensorShape": {
                                "dim": [
                                    {
                                        "size": "4"
                                    }
                                ]
                            }
                        }
                    }
                }
            },
            {
                "name": "PartitionedCall/split_16",
                "op": "Const",
                "attr": {
                    "value": {
                        "tensor": {
                            "dtype": "DT_FLOAT",
                            "tensorShape": {
                                "dim": [
                                    {
                                        "size": "2"
                                    },
                                    {
                                        "size": "2"
                                    },
                                    {
                                        "size": "192"
                                    },
                                    {
                                        "size": "240"
                                    }
                                ]
                            }
                        }
                    },
                    "dtype": {
                        "type": "DT_FLOAT"
                    }
                }
            },
            {
                "name": "unknown_72",
                "op": "Const",
                "attr": {
                    "dtype": {
                        "type": "DT_FLOAT"
                    },
                    "value": {
                        "tensor": {
                            "dtype": "DT_FLOAT",
                            "tensorShape": {
                                "dim": [
                                    {
                                        "size": "240"
                                    }
                                ]
                            }
                        }
                    }
                }
            },
            {
                "name": "PartitionedCall/transpose_50/perm",
                "op": "Const",
                "attr": {
                    "dtype": {
                        "type": "DT_INT32"
                    },
                    "value": {
                        "tensor": {
                            "dtype": "DT_INT32",
                            "tensorShape": {
                                "dim": [
                                    {
                                        "size": "4"
                                    }
                                ]
                            }
                        }
                    }
                }
            },
            {
                "name": "PartitionedCall/Const_12",
                "op": "Const",
                "attr": {
                    "value": {
                        "tensor": {
                            "dtype": "DT_INT32",
                            "tensorShape": {
                                "dim": [
                                    {
                                        "size": "4"
                                    },
                                    {
                                        "size": "2"
                                    }
                                ]
                            }
                        }
                    },
                    "dtype": {
                        "type": "DT_INT32"
                    }
                }
            },
            {
                "name": "PartitionedCall/transpose_52/perm",
                "op": "Const",
                "attr": {
                    "value": {
                        "tensor": {
                            "dtype": "DT_INT32",
                            "tensorShape": {
                                "dim": [
                                    {
                                        "size": "4"
                                    }
                                ]
                            }
                        }
                    },
                    "dtype": {
                        "type": "DT_INT32"
                    }
                }
            },
            {
                "name": "PartitionedCall/split_17",
                "op": "Const",
                "attr": {
                    "dtype": {
                        "type": "DT_FLOAT"
                    },
                    "value": {
                        "tensor": {
                            "dtype": "DT_FLOAT",
                            "tensorShape": {
                                "dim": [
                                    {
                                        "size": "3"
                                    },
                                    {
                                        "size": "3"
                                    },
                                    {
                                        "size": "240"
                                    },
                                    {
                                        "size": "240"
                                    }
                                ]
                            }
                        }
                    }
                }
            },
            {
                "name": "unknown_74",
                "op": "Const",
                "attr": {
                    "dtype": {
                        "type": "DT_FLOAT"
                    },
                    "value": {
                        "tensor": {
                            "dtype": "DT_FLOAT",
                            "tensorShape": {
                                "dim": [
                                    {
                                        "size": "240"
                                    }
                                ]
                            }
                        }
                    }
                }
            },
            {
                "name": "PartitionedCall/transpose_53/perm",
                "op": "Const",
                "attr": {
                    "dtype": {
                        "type": "DT_INT32"
                    },
                    "value": {
                        "tensor": {
                            "dtype": "DT_INT32",
                            "tensorShape": {
                                "dim": [
                                    {
                                        "size": "4"
                                    }
                                ]
                            }
                        }
                    }
                }
            },
            {
                "name": "PartitionedCall/Const_13",
                "op": "Const",
                "attr": {
                    "dtype": {
                        "type": "DT_INT32"
                    },
                    "value": {
                        "tensor": {
                            "dtype": "DT_INT32",
                            "tensorShape": {
                                "dim": [
                                    {
                                        "size": "4"
                                    },
                                    {
                                        "size": "2"
                                    }
                                ]
                            }
                        }
                    }
                }
            },
            {
                "name": "PartitionedCall/transpose_55/perm",
                "op": "Const",
                "attr": {
                    "value": {
                        "tensor": {
                            "dtype": "DT_INT32",
                            "tensorShape": {
                                "dim": [
                                    {
                                        "size": "4"
                                    }
                                ]
                            }
                        }
                    },
                    "dtype": {
                        "type": "DT_INT32"
                    }
                }
            },
            {
                "name": "PartitionedCall/split_18",
                "op": "Const",
                "attr": {
                    "dtype": {
                        "type": "DT_FLOAT"
                    },
                    "value": {
                        "tensor": {
                            "dtype": "DT_FLOAT",
                            "tensorShape": {
                                "dim": [
                                    {
                                        "size": "3"
                                    },
                                    {
                                        "size": "3"
                                    },
                                    {
                                        "size": "240"
                                    },
                                    {
                                        "size": "240"
                                    }
                                ]
                            }
                        }
                    }
                }
            },
            {
                "name": "unknown_76",
                "op": "Const",
                "attr": {
                    "value": {
                        "tensor": {
                            "dtype": "DT_FLOAT",
                            "tensorShape": {
                                "dim": [
                                    {
                                        "size": "240"
                                    }
                                ]
                            }
                        }
                    },
                    "dtype": {
                        "type": "DT_FLOAT"
                    }
                }
            },
            {
                "name": "PartitionedCall/transpose_56/perm",
                "op": "Const",
                "attr": {
                    "dtype": {
                        "type": "DT_INT32"
                    },
                    "value": {
                        "tensor": {
                            "dtype": "DT_INT32",
                            "tensorShape": {
                                "dim": [
                                    {
                                        "size": "4"
                                    }
                                ]
                            }
                        }
                    }
                }
            },
            {
                "name": "PartitionedCall/Const_14",
                "op": "Const",
                "attr": {
                    "dtype": {
                        "type": "DT_INT32"
                    },
                    "value": {
                        "tensor": {
                            "dtype": "DT_INT32",
                            "tensorShape": {
                                "dim": [
                                    {
                                        "size": "4"
                                    },
                                    {
                                        "size": "2"
                                    }
                                ]
                            }
                        }
                    }
                }
            },
            {
                "name": "PartitionedCall/transpose_58/perm",
                "op": "Const",
                "attr": {
                    "value": {
                        "tensor": {
                            "dtype": "DT_INT32",
                            "tensorShape": {
                                "dim": [
                                    {
                                        "size": "4"
                                    }
                                ]
                            }
                        }
                    },
                    "dtype": {
                        "type": "DT_INT32"
                    }
                }
            },
            {
                "name": "PartitionedCall/split_19",
                "op": "Const",
                "attr": {
                    "dtype": {
                        "type": "DT_FLOAT"
                    },
                    "value": {
                        "tensor": {
                            "dtype": "DT_FLOAT",
                            "tensorShape": {
                                "dim": [
                                    {
                                        "size": "3"
                                    },
                                    {
                                        "size": "3"
                                    },
                                    {
                                        "size": "240"
                                    },
                                    {
                                        "size": "240"
                                    }
                                ]
                            }
                        }
                    }
                }
            },
            {
                "name": "unknown_78",
                "op": "Const",
                "attr": {
                    "dtype": {
                        "type": "DT_FLOAT"
                    },
                    "value": {
                        "tensor": {
                            "dtype": "DT_FLOAT",
                            "tensorShape": {
                                "dim": [
                                    {
                                        "size": "240"
                                    }
                                ]
                            }
                        }
                    }
                }
            },
            {
                "name": "PartitionedCall/transpose_59/perm",
                "op": "Const",
                "attr": {
                    "dtype": {
                        "type": "DT_INT32"
                    },
                    "value": {
                        "tensor": {
                            "dtype": "DT_INT32",
                            "tensorShape": {
                                "dim": [
                                    {
                                        "size": "4"
                                    }
                                ]
                            }
                        }
                    }
                }
            },
            {
                "name": "unknown_79",
                "op": "Const",
                "attr": {
                    "dtype": {
                        "type": "DT_FLOAT"
                    },
                    "value": {
                        "tensor": {
                            "dtype": "DT_FLOAT",
                            "tensorShape": {
                                "dim": [
                                    {
                                        "size": "192"
                                    },
                                    {
                                        "size": "24"
                                    }
                                ]
                            }
                        }
                    }
                }
            },
            {
                "name": "PartitionedCall/onnx_tf_prefix_BatchNormalization_70/mul",
                "op": "Const",
                "attr": {
                    "value": {
                        "tensor": {
                            "dtype": "DT_FLOAT",
                            "tensorShape": {
                                "dim": [
                                    {
                                        "size": "1"
                                    },
                                    {
                                        "size": "240"
                                    },
                                    {
                                        "size": "1"
                                    },
                                    {
                                        "size": "1"
                                    }
                                ]
                            }
                        }
                    },
                    "dtype": {
                        "type": "DT_FLOAT"
                    }
                }
            },
            {
                "name": "PartitionedCall/onnx_tf_prefix_BatchNormalization_70/sub",
                "op": "Const",
                "attr": {
                    "dtype": {
                        "type": "DT_FLOAT"
                    },
                    "value": {
                        "tensor": {
                            "dtype": "DT_FLOAT",
                            "tensorShape": {
                                "dim": [
                                    {
                                        "size": "1"
                                    },
                                    {
                                        "size": "240"
                                    },
                                    {
                                        "size": "1"
                                    },
                                    {
                                        "size": "1"
                                    }
                                ]
                            }
                        }
                    }
                }
            },
            {
                "name": "unknown_84",
                "op": "Const",
                "attr": {
                    "dtype": {
                        "type": "DT_FLOAT"
                    },
                    "value": {
                        "tensor": {
                            "dtype": "DT_FLOAT",
                            "tensorShape": {
                                "dim": [
                                    {
                                        "size": "24"
                                    },
                                    {
                                        "size": "192"
                                    }
                                ]
                            }
                        }
                    }
                }
            },
            {
                "name": "PartitionedCall/onnx_tf_prefix_BatchNormalization_73/mul",
                "op": "Const",
                "attr": {
                    "value": {
                        "tensor": {
                            "dtype": "DT_FLOAT",
                            "tensorShape": {
                                "dim": [
                                    {
                                        "size": "1"
                                    },
                                    {
                                        "size": "240"
                                    },
                                    {
                                        "size": "1"
                                    },
                                    {
                                        "size": "1"
                                    }
                                ]
                            }
                        }
                    },
                    "dtype": {
                        "type": "DT_FLOAT"
                    }
                }
            },
            {
                "name": "PartitionedCall/onnx_tf_prefix_BatchNormalization_73/sub",
                "op": "Const",
                "attr": {
                    "dtype": {
                        "type": "DT_FLOAT"
                    },
                    "value": {
                        "tensor": {
                            "dtype": "DT_FLOAT",
                            "tensorShape": {
                                "dim": [
                                    {
                                        "size": "1"
                                    },
                                    {
                                        "size": "240"
                                    },
                                    {
                                        "size": "1"
                                    },
                                    {
                                        "size": "1"
                                    }
                                ]
                            }
                        }
                    }
                }
            },
            {
                "name": "PartitionedCall/Const_18",
                "op": "Const",
                "attr": {
                    "dtype": {
                        "type": "DT_INT32"
                    },
                    "value": {
                        "tensor": {
                            "dtype": "DT_INT32",
                            "tensorShape": {
                                "dim": [
                                    {
                                        "size": "4"
                                    },
                                    {
                                        "size": "2"
                                    }
                                ]
                            }
                        }
                    }
                }
            },
            {
                "name": "PartitionedCall/transpose_76/perm",
                "op": "Const",
                "attr": {
                    "dtype": {
                        "type": "DT_INT32"
                    },
                    "value": {
                        "tensor": {
                            "dtype": "DT_INT32",
                            "tensorShape": {
                                "dim": [
                                    {
                                        "size": "4"
                                    }
                                ]
                            }
                        }
                    }
                }
            },
            {
                "name": "PartitionedCall/split_25",
                "op": "Const",
                "attr": {
                    "dtype": {
                        "type": "DT_FLOAT"
                    },
                    "value": {
                        "tensor": {
                            "dtype": "DT_FLOAT",
                            "tensorShape": {
                                "dim": [
                                    {
                                        "size": "3"
                                    },
                                    {
                                        "size": "3"
                                    },
                                    {
                                        "size": "240"
                                    },
                                    {
                                        "size": "240"
                                    }
                                ]
                            }
                        }
                    }
                }
            },
            {
                "name": "unknown_114",
                "op": "Const",
                "attr": {
                    "dtype": {
                        "type": "DT_FLOAT"
                    },
                    "value": {
                        "tensor": {
                            "dtype": "DT_FLOAT",
                            "tensorShape": {
                                "dim": [
                                    {
                                        "size": "240"
                                    }
                                ]
                            }
                        }
                    }
                }
            },
            {
                "name": "PartitionedCall/transpose_77/perm",
                "op": "Const",
                "attr": {
                    "value": {
                        "tensor": {
                            "dtype": "DT_INT32",
                            "tensorShape": {
                                "dim": [
                                    {
                                        "size": "4"
                                    }
                                ]
                            }
                        }
                    },
                    "dtype": {
                        "type": "DT_INT32"
                    }
                }
            },
            {
                "name": "PartitionedCall/Const_19",
                "op": "Const",
                "attr": {
                    "dtype": {
                        "type": "DT_INT32"
                    },
                    "value": {
                        "tensor": {
                            "dtype": "DT_INT32",
                            "tensorShape": {
                                "dim": [
                                    {
                                        "size": "4"
                                    },
                                    {
                                        "size": "2"
                                    }
                                ]
                            }
                        }
                    }
                }
            },
            {
                "name": "PartitionedCall/transpose_79/perm",
                "op": "Const",
                "attr": {
                    "dtype": {
                        "type": "DT_INT32"
                    },
                    "value": {
                        "tensor": {
                            "dtype": "DT_INT32",
                            "tensorShape": {
                                "dim": [
                                    {
                                        "size": "4"
                                    }
                                ]
                            }
                        }
                    }
                }
            },
            {
                "name": "PartitionedCall/split_26",
                "op": "Const",
                "attr": {
                    "value": {
                        "tensor": {
                            "dtype": "DT_FLOAT",
                            "tensorShape": {
                                "dim": [
                                    {
                                        "size": "3"
                                    },
                                    {
                                        "size": "3"
                                    },
                                    {
                                        "size": "240"
                                    },
                                    {
                                        "size": "240"
                                    }
                                ]
                            }
                        }
                    },
                    "dtype": {
                        "type": "DT_FLOAT"
                    }
                }
            },
            {
                "name": "unknown_116",
                "op": "Const",
                "attr": {
                    "dtype": {
                        "type": "DT_FLOAT"
                    },
                    "value": {
                        "tensor": {
                            "dtype": "DT_FLOAT",
                            "tensorShape": {
                                "dim": [
                                    {
                                        "size": "240"
                                    }
                                ]
                            }
                        }
                    }
                }
            },
            {
                "name": "PartitionedCall/transpose_80/perm",
                "op": "Const",
                "attr": {
                    "value": {
                        "tensor": {
                            "dtype": "DT_INT32",
                            "tensorShape": {
                                "dim": [
                                    {
                                        "size": "4"
                                    }
                                ]
                            }
                        }
                    },
                    "dtype": {
                        "type": "DT_INT32"
                    }
                }
            },
            {
                "name": "PartitionedCall/Const_20",
                "op": "Const",
                "attr": {
                    "value": {
                        "tensor": {
                            "dtype": "DT_INT32",
                            "tensorShape": {
                                "dim": [
                                    {
                                        "size": "4"
                                    },
                                    {
                                        "size": "2"
                                    }
                                ]
                            }
                        }
                    },
                    "dtype": {
                        "type": "DT_INT32"
                    }
                }
            },
            {
                "name": "PartitionedCall/transpose_82/perm",
                "op": "Const",
                "attr": {
                    "dtype": {
                        "type": "DT_INT32"
                    },
                    "value": {
                        "tensor": {
                            "dtype": "DT_INT32",
                            "tensorShape": {
                                "dim": [
                                    {
                                        "size": "4"
                                    }
                                ]
                            }
                        }
                    }
                }
            },
            {
                "name": "PartitionedCall/split_27",
                "op": "Const",
                "attr": {
                    "value": {
                        "tensor": {
                            "dtype": "DT_FLOAT",
                            "tensorShape": {
                                "dim": [
                                    {
                                        "size": "3"
                                    },
                                    {
                                        "size": "3"
                                    },
                                    {
                                        "size": "240"
                                    },
                                    {
                                        "size": "240"
                                    }
                                ]
                            }
                        }
…
                    "name": "PartitionedCall/Const_11",
                    "shape": [
                        4,
                        2
                    ],
                    "dtype": "int32"
                },
                {
                    "name": "PartitionedCall/transpose_46/perm",
                    "shape": [
                        4
                    ],
                    "dtype": "int32"
                },
                {
                    "name": "PartitionedCall/split_15",
                    "shape": [
                        3,
                        3,
                        192,
                        192
                    ],
                    "dtype": "float32"
                },
                {
                    "name": "unknown_60",
                    "shape": [
                        192
                    ],
                    "dtype": "float32"
                },
                {
                    "name": "PartitionedCall/transpose_47/perm",
                    "shape": [
                        4
                    ],
                    "dtype": "int32"
                },
                {
                    "name": "unknown_61",
                    "shape": [
                        384,
                        48
                    ],
                    "dtype": "float32"
                },
                {
                    "name": "PartitionedCall/onnx_tf_prefix_BatchNormalization_55/mul",
                    "shape": [
                        1,
                        192,
                        1,
                        1
                    ],
                    "dtype": "float32"
                },
                {
                    "name": "PartitionedCall/onnx_tf_prefix_BatchNormalization_55/sub",
                    "shape": [
                        1,
                        192,
                        1,
                        1
                    ],
                    "dtype": "float32"
                },
                {
                    "name": "unknown_66",
                    "shape": [
                        48,
                        384
                    ],
                    "dtype": "float32"
                },
                {
                    "name": "PartitionedCall/onnx_tf_prefix_BatchNormalization_58/mul",
                    "shape": [
                        1,
                        192,
                        1,
                        1
                    ],
                    "dtype": "float32"
                },
                {
                    "name": "PartitionedCall/onnx_tf_prefix_BatchNormalization_58/sub",
                    "shape": [
                        1,
                        192,
                        1,
                        1
                    ],
                    "dtype": "float32"
                },
                {
                    "name": "PartitionedCall/Const_21",
                    "shape": [
                        4,
                        2
                    ],
                    "dtype": "int32"
                },
                {
                    "name": "PartitionedCall/transpose_88/perm",
                    "shape": [
                        4
                    ],
                    "dtype": "int32"
                },
                {
                    "name": "PartitionedCall/split_29",
                    "shape": [
                        3,
                        3,
                        192,
                        192
                    ],
                    "dtype": "float32"
                },
                {
                    "name": "unknown_136",
                    "shape": [
                        192
                    ],
                    "dtype": "float32"
                },
                {
                    "name": "PartitionedCall/transpose_89/perm",
                    "shape": [
                        4
                    ],
                    "dtype": "int32"
                },
                {
                    "name": "PartitionedCall/Const_22",
                    "shape": [
                        4,
                        2
                    ],
                    "dtype": "int32"
                },
                {
                    "name": "PartitionedCall/transpose_91/perm",
                    "shape": [
                        4
                    ],
                    "dtype": "int32"
                },
                {
                    "name": "PartitionedCall/split_30",
                    "shape": [
                        3,
                        3,
                        192,
                        192
                    ],
                    "dtype": "float32"
                },
                {
                    "name": "unknown_138",
                    "shape": [
                        192
                    ],
                    "dtype": "float32"
                },
                {
                    "name": "PartitionedCall/transpose_92/perm",
                    "shape": [
                        4
                    ],
                    "dtype": "int32"
                },
                {
                    "name": "PartitionedCall/Const_23",
                    "shape": [
                        4,
                        2
                    ],
                    "dtype": "int32"
                },
                {
                    "name": "PartitionedCall/transpose_94/perm",
                    "shape": [
                        4
                    ],
                    "dtype": "int32"
                },
                {
                    "name": "PartitionedCall/split_31",
                    "shape": [
                        3,
                        3,
                        192,
                        192
                    ],
                    "dtype": "float32"
                },
                {
                    "name": "unknown_140",
                    "shape": [
                        192
                    ],
                    "dtype": "float32"
                },
                {
                    "name": "PartitionedCall/transpose_95/perm",
                    "shape": [
                        4
                    ],
                    "dtype": "int32"
                },
                {
                    "name": "unknown_141",
                    "shape": [
                        384,
                        48
                    ],
                    "dtype": "float32"
                },
                {
                    "name": "PartitionedCall/onnx_tf_prefix_BatchNormalization_119/mul",
                    "shape": [
                        1,
                        192,
                        1,
                        1
                    ],
                    "dtype": "float32"
                },
                {
                    "name": "PartitionedCall/onnx_tf_prefix_BatchNormalization_119/sub",
                    "shape": [
                        1,
                        192,
                        1,
                        1
                    ],
                    "dtype": "float32"
                },
                {
                    "name": "unknown_146",
                    "shape": [
                        48,
                        384
                    ],
                    "dtype": "float32"
                },
                {
                    "name": "PartitionedCall/onnx_tf_prefix_BatchNormalization_122/mul",
                    "shape": [
                        1,
                        192,
                        1,
                        1
                    ],
                    "dtype": "float32"
                },
                {
                    "name": "PartitionedCall/onnx_tf_prefix_BatchNormalization_122/sub",
                    "shape": [
                        1,
                        192,
                        1,
                        1
                    ],
                    "dtype": "float32"
                },
                {
                    "name": "PartitionedCall/transpose_97/perm",
                    "shape": [
                        4
                    ],
                    "dtype": "int32"
                },
                {
                    "name": "PartitionedCall/strided_slice_20/stack",
                    "shape": [
                        1
                    ],
                    "dtype": "int32"
                },
                {
                    "name": "PartitionedCall/strided_slice_20/stack_1",
                    "shape": [
                        1
                    ],
                    "dtype": "int32"
                },
                {
                    "name": "PartitionedCall/strided_slice_20/stack_2",
                    "shape": [
                        1
                    ],
                    "dtype": "int32"
                },
                {
                    "name": "unknown_152",
                    "shape": [
                        144
                    ],
                    "dtype": "float32"
                },
                {
                    "name": "PartitionedCall/transpose_98/perm",
                    "shape": [
                        4
                    ],
                    "dtype": "int32"
                },
                {
                    "name": "PartitionedCall/onnx_tf_prefix_BatchNormalization_126/mul",
                    "shape": [
                        1,
                        144,
                        1,
                        1
                    ],
                    "dtype": "float32"
                },
                {
                    "name": "PartitionedCall/onnx_tf_prefix_BatchNormalization_126/sub",
                    "shape": [
                        1,
                        144,
                        1,
                        1
                    ],
                    "dtype": "float32"
                },
                {
                    "name": "PartitionedCall/transpose_25/perm",
                    "shape": [
                        4
                    ],
                    "dtype": "int32"
                },
                {
                    "name": "PartitionedCall/split_8",
                    "shape": [
                        2,
                        2,
                        96,
                        144
                    ],
                    "dtype": "float32"
                },
                {
                    "name": "unknown_36",
                    "shape": [
                        144
                    ],
                    "dtype": "float32"
                },
                {
                    "name": "PartitionedCall/transpose_26/perm",
                    "shape": [
                        4
                    ],
                    "dtype": "int32"
                },
                {
                    "name": "PartitionedCall/Const_6",
                    "shape": [
                        4,
                        2
                    ],
                    "dtype": "int32"
                },
                {
                    "name": "PartitionedCall/transpose_28/perm",
                    "shape": [
                        4
                    ],
                    "dtype": "int32"
                },
                {
                    "name": "PartitionedCall/split_9",
                    "shape": [
                        3,
                        3,
                        144,
                        144
                    ],
                    "dtype": "float32"
                },
                {
                    "name": "unknown_38",
                    "shape": [
                        144
                    ],
                    "dtype": "float32"
                },
                {
                    "name": "PartitionedCall/transpose_29/perm",
                    "shape": [
                        4
                    ],
                    "dtype": "int32"
                },
                {
                    "name": "PartitionedCall/Const_7",
                    "shape": [
                        4,
                        2
                    ],
                    "dtype": "int32"
                },
                {
                    "name": "PartitionedCall/transpose_31/perm",
                    "shape": [
                        4
                    ],
                    "dtype": "int32"
                },
                {
                    "name": "PartitionedCall/split_10",
                    "shape": [
                        3,
                        3,
                        144,
                        144
                    ],
                    "dtype": "float32"
                },
                {
                    "name": "unknown_40",
                    "shape": [
                        144
                    ],
                    "dtype": "float32"
                },
                {
                    "name": "PartitionedCall/transpose_32/perm",
                    "shape": [
                        4
                    ],
                    "dtype": "int32"
                },
                {
                    "name": "PartitionedCall/Const_8",
                    "shape": [
                        4,
                        2
                    ],
                    "dtype": "int32"
                },
                {
                    "name": "PartitionedCall/transpose_34/perm",
                    "shape": [
                        4
                    ],
                    "dtype": "int32"
                },
                {
                    "name": "PartitionedCall/split_11",
                    "shape": [
                        3,
                        3,
                        144,
                        144
                    ],
                    "dtype": "float32"
                },
                {
                    "name": "unknown_42",
                    "shape": [
                        144
                    ],
                    "dtype": "float32"
                },
                {
                    "name": "PartitionedCall/transpose_35/perm",
                    "shape": [
                        4
                    ],
                    "dtype": "int32"
                },
                {
                    "name": "unknown_43",
                    "shape": [
                        768,
                        96
                    ],
                    "dtype": "float32"
                },
                {
                    "name": "PartitionedCall/onnx_tf_prefix_BatchNormalization_40/mul",
                    "shape": [
                        1,
                        144,
                        1,
                        1
                    ],
                    "dtype": "float32"
                },
                {
                    "name": "PartitionedCall/onnx_tf_prefix_BatchNormalization_40/sub",
                    "shape": [
                        1,
                        144,
                        1,
                        1
                    ],
                    "dtype": "float32"
                },
                {
                    "name": "unknown_48",
                    "shape": [
                        96,
                        768
                    ],
                    "dtype": "float32"
                },
                {
                    "name": "PartitionedCall/onnx_tf_prefix_BatchNormalization_43/mul",
                    "shape": [
                        1,
                        144,
                        1,
                        1
                    ],
                    "dtype": "float32"
                },
                {
                    "name": "PartitionedCall/onnx_tf_prefix_BatchNormalization_43/sub",
                    "shape": [
                        1,
                        144,
                        1,
                        1
                    ],
                    "dtype": "float32"
                },
                {
                    "name": "PartitionedCall/Const_24",
                    "shape": [
                        4,
                        2
                    ],
                    "dtype": "int32"
                },
                {
                    "name": "PartitionedCall/transpose_100/perm",
                    "shape": [
                        4
                    ],
                    "dtype": "int32"
                },
                {
                    "name": "PartitionedCall/split_33",
                    "shape": [
                        3,
                        3,
                        144,
                        144
                    ],
                    "dtype": "float32"
                },
                {
                    "name": "unknown_158",
                    "shape": [
                        144
                    ],
                    "dtype": "float32"
                },
                {
                    "name": "PartitionedCall/transpose_101/perm",
                    "shape": [
                        4
                    ],
                    "dtype": "int32"
                },
                {
                    "name": "PartitionedCall/Const_25",
                    "shape": [
                        4,
                        2
                    ],
                    "dtype": "int32"
                },
                {
                    "name": "PartitionedCall/transpose_103/perm",
                    "shape": [
                        4
                    ],
                    "dtype": "int32"
                },
                {
                    "name": "PartitionedCall/split_34",
                    "shape": [
                        3,
                        3,
                        144,
                        144
                    ],
                    "dtype": "float32"
                },
                {
                    "name": "unknown_160",
                    "shape": [
                        144
                    ],
                    "dtype": "float32"
                },
                {
                    "name": "PartitionedCall/transpose_104/perm",
                    "shape": [
                        4
                    ],
                    "dtype": "int32"
                },
                {
                    "name": "PartitionedCall/Const_26",
                    "shape": [
                        4,
                        2
                    ],
                    "dtype": "int32"
                },
                {
                    "name": "PartitionedCall/transpose_106/perm",
                    "shape": [
                        4
                    ],
                    "dtype": "int32"
                },
                {
                    "name": "PartitionedCall/split_35",
                    "shape": [
                        3,
                        3,
                        144,
                        144
                    ],
                    "dtype": "float32"
                },
                {
                    "name": "unknown_162",
                    "shape": [
                        144
                    ],
                    "dtype": "float32"
                },
                {
                    "name": "PartitionedCall/transpose_107/perm",
                    "shape": [
                        4
                    ],
                    "dtype": "int32"
                },
                {
                    "name": "unknown_163",
                    "shape": [
                        768,
                        96
                    ],
                    "dtype": "float32"
                },
                {
                    "name": "PartitionedCall/onnx_tf_prefix_BatchNormalization_136/mul",
                    "shape": [
                        1,
                        144,
                        1,
                        1
                    ],
                    "dtype": "float32"
                },
                {
                    "name": "PartitionedCall/onnx_tf_prefix_BatchNormalization_136/sub",
                    "shape": [
                        1,
                        144,
                        1,
                        1
                    ],
                    "dtype": "float32"
                },
                {
                    "name": "unknown_168",
                    "shape": [
                        96,
                        768
                    ],
                    "dtype": "float32"
                },
                {
                    "name": "PartitionedCall/onnx_tf_prefix_BatchNormalization_139/mul",
                    "shape": [
                        1,
                        144,
                        1,
                        1
                    ],
                    "dtype": "float32"
                },
                {
                    "name": "PartitionedCall/onnx_tf_prefix_BatchNormalization_139/sub",
                    "shape": [
                        1,
                        144,
                        1,
                        1
                    ],
                    "dtype": "float32"
                },
                {
                    "name": "PartitionedCall/transpose_109/perm",
                    "shape": [
                        4
                    ],
                    "dtype": "int32"
                },
                {
                    "name": "PartitionedCall/strided_slice_27/stack",
                    "shape": [
                        1
                    ],
                    "dtype": "int32"
                },
                {
                    "name": "PartitionedCall/strided_slice_27/stack_1",
                    "shape": [
                        1
                    ],
                    "dtype": "int32"
                },
                {
                    "name": "PartitionedCall/strided_slice_27/stack_2",
                    "shape": [
                        1
                    ],
                    "dtype": "int32"
                },
                {
                    "name": "unknown_174",
                    "shape": [
                        96
                    ],
                    "dtype": "float32"
                },
                {
                    "name": "PartitionedCall/transpose_110/perm",
                    "shape": [
                        4
                    ],
                    "dtype": "int32"
                },
                {
                    "name": "PartitionedCall/onnx_tf_prefix_BatchNormalization_143/mul",
                    "shape": [
                        1,
                        96,
                        1,
                        1
                    ],
                    "dtype": "float32"
                },
                {
                    "name": "PartitionedCall/onnx_tf_prefix_BatchNormalization_143/sub",
                    "shape": [
                        1,
                        96,
                        1,
                        1
                    ],
                    "dtype": "float32"
                },
                {
                    "name": "PartitionedCall/transpose_13/perm",
                    "shape": [
                        4
                    ],
                    "dtype": "int32"
                },
                {
                    "name": "PartitionedCall/split_4",
                    "shape": [
                        2,
                        2,
                        48,
                        96
                    ],
                    "dtype": "float32"
                },
                {
                    "name": "unknown_18",
                    "shape": [
                        96
                    ],
                    "dtype": "float32"
                },
                {
                    "name": "PartitionedCall/transpose_14/perm",
                    "shape": [
                        4
                    ],
                    "dtype": "int32"
                },
                {
                    "name": "PartitionedCall/Const_3",
                    "shape": [
                        4,
                        2
                    ],
                    "dtype": "int32"
                },
                {
                    "name": "PartitionedCall/transpose_16/perm",
                    "shape": [
                        4
                    ],
                    "dtype": "int32"
                },
                {
                    "name": "PartitionedCall/split_5",
                    "shape": [
                        3,
                        3,
                        96,
                        96
                    ],
                    "dtype": "float32"
                },
                {
                    "name": "unknown_20",
                    "shape": [
                        96
                    ],
                    "dtype": "float32"
                },
                {
                    "name": "PartitionedCall/transpose_17/perm",
                    "shape": [
                        4
                    ],
                    "dtype": "int32"
                },
                {
                    "name": "PartitionedCall/Const_4",
                    "shape": [
                        4,
                        2
                    ],
                    "dtype": "int32"
                },
                {
                    "name": "PartitionedCall/transpose_19/perm",
                    "shape": [
                        4
                    ],
                    "dtype": "int32"
                },
                {
                    "name": "PartitionedCall/split_6",
                    "shape": [
                        3,
                        3,
                        96,
                        96
                    ],
                    "dtype": "float32"
                },
                {
                    "name": "unknown_22",
                    "shape": [
                        96
                    ],
                    "dtype": "float32"
                },
                {
                    "name": "PartitionedCall/transpose_20/perm",
                    "shape": [
                        4
                    ],
                    "dtype": "int32"
                },
                {
                    "name": "PartitionedCall/Const_5",
                    "shape": [
                        4,
                        2
                    ],
                    "dtype": "int32"
                },
                {
                    "name": "PartitionedCall/transpose_22/perm",
                    "shape": [
                        4
                    ],
                    "dtype": "int32"
                },
                {
                    "name": "PartitionedCall/split_7",
                    "shape": [
                        3,
                        3,
                        96,
                        96
                    ],
                    "dtype": "float32"
                },
                {
                    "name": "unknown_24",
                    "shape": [
                        96
                    ],
                    "dtype": "float32"
                },
                {
                    "name": "PartitionedCall/transpose_23/perm",
                    "shape": [
                        4
                    ],
                    "dtype": "int32"
                },
                {
                    "name": "unknown_25",
                    "shape": [
                        1536,
                        192
                    ],
                    "dtype": "float32"
                },
                {
                    "name": "PartitionedCall/onnx_tf_prefix_BatchNormalization_25/mul",
                    "shape": [
                        1,
                        96,
                        1,
                        1
                    ],
                    "dtype": "float32"
                },
                {
                    "name": "PartitionedCall/onnx_tf_prefix_BatchNormalization_25/sub",
                    "shape": [
                        1,
                        96,
                        1,
                        1
                    ],
                    "dtype": "float32"
                },
                {
                    "name": "unknown_30",
                    "shape": [
                        192,
                        1536
                    ],
                    "dtype": "float32"
                },
                {
                    "name": "PartitionedCall/onnx_tf_prefix_BatchNormalization_28/mul",
                    "shape": [
                        1,
                        96,
                        1,
                        1
                    ],
                    "dtype": "float32"
                },
                {
                    "name": "PartitionedCall/onnx_tf_prefix_BatchNormalization_28/sub",
                    "shape": [
                        1,
                        96,
                        1,
                        1
                    ],
                    "dtype": "float32"
                },
                {
                    "name": "PartitionedCall/Const_27",
                    "shape": [
                        4,
                        2
                    ],
                    "dtype": "int32"
                },
                {
                    "name": "PartitionedCall/transpose_112/perm",
                    "shape": [
                        4
                    ],
                    "dtype": "int32"
                },
                {
                    "name": "PartitionedCall/split_37",
                    "shape": [
                        3,
                        3,
                        96,
                        96
                    ],
                    "dtype": "float32"
                },
                {
                    "name": "unknown_180",
                    "shape": [
                        96
                    ],
                    "dtype": "float32"
                },
                {
                    "name": "PartitionedCall/transpose_113/perm",
                    "shape": [
                        4
                    ],
                    "dtype": "int32"
                },
                {
                    "name": "PartitionedCall/Const_28",
                    "shape": [
                        4,
                        2
                    ],
                    "dtype": "int32"
                },
                {
                    "name": "PartitionedCall/transpose_115/perm",
                    "shape": [
                        4
                    ],
                    "dtype": "int32"
                },
                {
                    "name": "PartitionedCall/split_38",
                    "shape": [
                        3,
                        3,
                        96,
                        96
                    ],
                    "dtype": "float32"
                },
                {
                    "name": "unknown_182",
                    "shape": [
                        96
                    ],
                    "dtype": "float32"
                },
                {
                    "name": "PartitionedCall/transpose_116/perm",
                    "shape": [
                        4
                    ],
                    "dtype": "int32"
                },
                {
                    "name": "PartitionedCall/Const_29",
                    "shape": [
                        4,
                        2
                    ],
                    "dtype": "int32"
                },
                {
                    "name": "PartitionedCall/transpose_118/perm",
                    "shape": [
                        4
                    ],
                    "dtype": "int32"
                },
                {
                    "name": "PartitionedCall/split_39",
                    "shape": [
                        3,
                        3,
                        96,
                        96
                    ],
                    "dtype": "float32"
                },
                {
                    "name": "unknown_184",
                    "shape": [
                        96
                    ],
                    "dtype": "float32"
                },
                {
                    "name": "PartitionedCall/transpose_119/perm",
                    "shape": [
                        4
                    ],
                    "dtype": "int32"
                },
                {
                    "name": "unknown_185",
                    "shape": [
                        1536,
                        192
                    ],
                    "dtype": "float32"
                },
                {
                    "name": "PartitionedCall/onnx_tf_prefix_BatchNormalization_153/mul",
                    "shape": [
                        1,
                        96,
                        1,
                        1
                    ],
                    "dtype": "float32"
                },
                {
                    "name": "PartitionedCall/onnx_tf_prefix_BatchNormalization_153/sub",
                    "shape": [
                        1,
                        96,
                        1,
                        1
                    ],
                    "dtype": "float32"
                },
                {
                    "name": "unknown_190",
                    "shape": [
                        192,
                        1536
                    ],
                    "dtype": "float32"
                },
                {
                    "name": "PartitionedCall/onnx_tf_prefix_BatchNormalization_156/mul",
                    "shape": [
                        1,
                        96,
                        1,
                        1
                    ],
                    "dtype": "float32"
                },
                {
                    "name": "PartitionedCall/onnx_tf_prefix_BatchNormalization_156/sub",
                    "shape": [
                        1,
                        96,
                        1,
                        1
                    ],
                    "dtype": "float32"
                },
                {
                    "name": "PartitionedCall/transpose_121/perm",
                    "shape": [
                        4
                    ],
                    "dtype": "int32"
                },
                {
                    "name": "PartitionedCall/strided_slice_34/stack",
                    "shape": [
                        1
                    ],
                    "dtype": "int32"
                },
                {
                    "name": "PartitionedCall/strided_slice_34/stack_1",
                    "shape": [
                        1
                    ],
                    "dtype": "int32"
                },
                {
                    "name": "PartitionedCall/strided_slice_34/stack_2",
                    "shape": [
                        1
                    ],
                    "dtype": "int32"
                },
                {
                    "name": "unknown_196",
                    "shape": [
                        48
                    ],
                    "dtype": "float32"
                },
                {
                    "name": "PartitionedCall/transpose_122/perm",
                    "shape": [
                        4
                    ],
                    "dtype": "int32"
                },
                {
                    "name": "PartitionedCall/onnx_tf_prefix_BatchNormalization_160/mul",
                    "shape": [
                        1,
                        48,
                        1,
                        1
                    ],
                    "dtype": "float32"
                },
                {
                    "name": "PartitionedCall/onnx_tf_prefix_BatchNormalization_160/sub",
                    "shape": [
                        1,
                        48,
                        1,
                        1
                    ],
                    "dtype": "float32"
                },
                {
                    "name": "PartitionedCall/transpose_1/perm",
                    "shape": [
                        4
                    ],
                    "dtype": "int32"
                },
                {
                    "name": "PartitionedCall/split",
                    "shape": [
                        1,
                        1,
                        4,
                        48
                    ],
                    "dtype": "float32"
                },
                {
                    "name": "unknown_0",
                    "shape": [
                        48
                    ],
                    "dtype": "float32"
                },
                {
                    "name": "PartitionedCall/transpose_2/perm",
                    "shape": [
                        4
                    ],
                    "dtype": "int32"
                },
                {
                    "name": "PartitionedCall/onnx_tf_prefix_Transpose_2/perm",
                    "shape": [
                        4
                    ],
                    "dtype": "int32"
                },
                {
                    "name": "PartitionedCall/Const",
                    "shape": [
                        4,
                        2
                    ],
                    "dtype": "int32"
                },
                {
                    "name": "PartitionedCall/transpose_4/perm",
                    "shape": [
                        4
                    ],
                    "dtype": "int32"
                },
                {
                    "name": "PartitionedCall/split_1",
                    "shape": [
                        3,
                        3,
                        48,
                        48
                    ],
                    "dtype": "float32"
                },
                {
                    "name": "unknown_2",
                    "shape": [
                        48
                    ],
                    "dtype": "float32"
                },
                {
                    "name": "PartitionedCall/transpose_5/perm",
                    "shape": [
                        4
                    ],
                    "dtype": "int32"
                },
                {
                    "name": "PartitionedCall/Const_1",
                    "shape": [
                        4,
                        2
                    ],
                    "dtype": "int32"
                },
                {
                    "name": "PartitionedCall/transpose_7/perm",
                    "shape": [
                        4
                    ],
                    "dtype": "int32"
                },
                {
                    "name": "PartitionedCall/split_2",
                    "shape": [
                        3,
                        3,
                        48,
                        48
                    ],
                    "dtype": "float32"
                },
                {
                    "name": "unknown_4",
                    "shape": [
                        48
                    ],
                    "dtype": "float32"
                },
                {
                    "name": "PartitionedCall/transpose_8/perm",
                    "shape": [
                        4
                    ],
                    "dtype": "int32"
                },
                {
                    "name": "PartitionedCall/Const_2",
                    "shape": [
                        4,
                        2
                    ],
                    "dtype": "int32"
                },
                {
                    "name": "PartitionedCall/transpose_10/perm",
                    "shape": [
                        4
                    ],
                    "dtype": "int32"
                },
                {
                    "name": "PartitionedCall/split_3",
                    "shape": [
                        3,
                        3,
                        48,
                        48
                    ],
                    "dtype": "float32"
                },
                {
                    "name": "unknown_6",
                    "shape": [
                        48
                    ],
                    "dtype": "float32"
                },
                {
                    "name": "PartitionedCall/transpose_11/perm",
                    "shape": [
                        4
                    ],
                    "dtype": "int32"
                },
                {
                    "name": "unknown_7",
                    "shape": [
                        3072,
                        384
                    ],
                    "dtype": "float32"
                },
                {
                    "name": "PartitionedCall/onnx_tf_prefix_BatchNormalization_10/mul",
                    "shape": [
                        1,
                        48,
                        1,
                        1
                    ],
                    "dtype": "float32"
                },
                {
                    "name": "PartitionedCall/onnx_tf_prefix_BatchNormalization_10/sub",
                    "shape": [
                        1,
                        48,
                        1,
                        1
                    ],
                    "dtype": "float32"
                },
                {
                    "name": "unknown_12",
                    "shape": [
                        384,
                        3072
                    ],
                    "dtype": "float32"
                },
                {
                    "name": "PartitionedCall/onnx_tf_prefix_BatchNormalization_13/mul",
                    "shape": [
                        1,
                        48,
                        1,
                        1
                    ],
                    "dtype": "float32"
                },
                {
                    "name": "PartitionedCall/onnx_tf_prefix_BatchNormalization_13/sub",
                    "shape": [
                        1,
                        48,
                        1,
                        1
                    ],
                    "dtype": "float32"
                },
                {
                    "name": "PartitionedCall/Const_30",
                    "shape": [
                        4,
                        2
                    ],
                    "dtype": "int32"
                },
                {
                    "name": "PartitionedCall/transpose_124/perm",
                    "shape": [
                        4
                    ],
                    "dtype": "int32"
                },
                {
                    "name": "PartitionedCall/split_41",
                    "shape": [
                        3,
                        3,
                        48,
                        48
                    ],
                    "dtype": "float32"
                },
                {
                    "name": "unknown_202",
                    "shape": [
                        48
                    ],
                    "dtype": "float32"
                },
                {
                    "name": "PartitionedCall/transpose_125/perm",
                    "shape": [
                        4
                    ],
                    "dtype": "int32"
                },
                {
                    "name": "PartitionedCall/Const_31",
                    "shape": [
                        4,
                        2
                    ],
                    "dtype": "int32"
                },
                {
                    "name": "PartitionedCall/transpose_127/perm",
                    "shape": [
                        4
                    ],
                    "dtype": "int32"
                },
                {
                    "name": "PartitionedCall/split_42",
                    "shape": [
                        3,
                        3,
                        48,
                        48
                    ],
                    "dtype": "float32"
                },
                {
                    "name": "unknown_204",
                    "shape": [
                        48
                    ],
                    "dtype": "float32"
                },
                {
                    "name": "PartitionedCall/transpose_128/perm",
                    "shape": [
                        4
                    ],
                    "dtype": "int32"
                },
                {
                    "name": "PartitionedCall/Const_32",
                    "shape": [
                        4,
                        2
                    ],
                    "dtype": "int32"
                },
                {
                    "name": "PartitionedCall/transpose_130/perm",
                    "shape": [
                        4
                    ],
                    "dtype": "int32"
                },
                {
                    "name": "PartitionedCall/split_43",
                    "shape": [
                        3,
                        3,
                        48,
                        48
                    ],
                    "dtype": "float32"
                },
                {
                    "name": "unknown_206",
                    "shape": [
                        48
                    ],
                    "dtype": "float32"
                },
                {
                    "name": "PartitionedCall/transpose_131/perm",
                    "shape": [
                        4
                    ],
                    "dtype": "int32"
                },
                {
                    "name": "unknown_207",
                    "shape": [
                        3072,
                        384
                    ],
                    "dtype": "float32"
                },
                {
                    "name": "PartitionedCall/onnx_tf_prefix_BatchNormalization_170/mul",
                    "shape": [
                        1,
                        48,
                        1,
                        1
                    ],
                    "dtype": "float32"
                },
                {
                    "name": "PartitionedCall/onnx_tf_prefix_BatchNormalization_170/sub",
                    "shape": [
                        1,
                        48,
                        1,
                        1
                    ],
                    "dtype": "float32"
                },
                {
                    "name": "unknown_212",
                    "shape": [
                        384,
                        3072
                    ],
                    "dtype": "float32"
                },
                {
                    "name": "PartitionedCall/onnx_tf_prefix_BatchNormalization_173/mul",
                    "shape": [
                        1,
                        48,
                        1,
                        1
                    ],
                    "dtype": "float32"
                },
                {
                    "name": "PartitionedCall/onnx_tf_prefix_BatchNormalization_173/sub",
                    "shape": [
                        1,
                        48,
                        1,
                        1
                    ],
                    "dtype": "float32"
                },
                {
                    "name": "PartitionedCall/onnx_tf_prefix_Transpose_176/perm",
                    "shape": [
                        4
                    ],
                    "dtype": "int32"
                },
                {
                    "name": "PartitionedCall/transpose_133/perm",
                    "shape": [
                        4
                    ],
                    "dtype": "int32"
                },
                {
                    "name": "PartitionedCall/split_44",
                    "shape": [
                        1,
                        1,
                        48,
                        4
                    ],
                    "dtype": "float32"
                },
                {
                    "name": "unknown_218",
                    "shape": [
                        4
                    ],
                    "dtype": "float32"
                },
                {
                    "name": "PartitionedCall/transpose_134/perm",
                    "shape": [
                        4
                    ],
                    "dtype": "int32"
                }
            ]
        }
    ]
}